saved_model_schema_version: 1
meta_graphs {
  meta_info_def {
    stripped_op_list {
      op {
        name: "Abs"
        input_arg {
          name: "x"
          type_attr: "T"
        }
        output_arg {
          name: "y"
          type_attr: "T"
        }
        attr {
          name: "T"
          type: "type"
          allowed_values {
            list {
              type: DT_BFLOAT16
              type: DT_HALF
              type: DT_FLOAT
              type: DT_DOUBLE
              type: DT_INT32
              type: DT_INT64
            }
          }
        }
      }
      op {
        name: "Add"
        input_arg {
          name: "x"
          type_attr: "T"
        }
        input_arg {
          name: "y"
          type_attr: "T"
        }
        output_arg {
          name: "z"
          type_attr: "T"
        }
        attr {
          name: "T"
          type: "type"
          allowed_values {
            list {
              type: DT_BFLOAT16
              type: DT_HALF
              type: DT_FLOAT
              type: DT_DOUBLE
              type: DT_UINT8
              type: DT_INT8
              type: DT_INT16
              type: DT_INT32
              type: DT_INT64
              type: DT_COMPLEX64
              type: DT_COMPLEX128
              type: DT_STRING
            }
          }
        }
      }
      op {
        name: "Assign"
        input_arg {
          name: "ref"
          type_attr: "T"
          is_ref: true
        }
        input_arg {
          name: "value"
          type_attr: "T"
        }
        output_arg {
          name: "output_ref"
          type_attr: "T"
          is_ref: true
        }
        attr {
          name: "T"
          type: "type"
        }
        attr {
          name: "validate_shape"
          type: "bool"
          default_value {
            b: true
          }
        }
        attr {
          name: "use_locking"
          type: "bool"
          default_value {
            b: true
          }
        }
        allows_uninitialized_input: true
      }
      op {
        name: "AssignVariableOp"
        input_arg {
          name: "resource"
          type: DT_RESOURCE
        }
        input_arg {
          name: "value"
          type_attr: "dtype"
        }
        attr {
          name: "dtype"
          type: "type"
        }
        is_stateful: true
      }
      op {
        name: "BatchMatMul"
        input_arg {
          name: "x"
          type_attr: "T"
        }
        input_arg {
          name: "y"
          type_attr: "T"
        }
        output_arg {
          name: "output"
          type_attr: "T"
        }
        attr {
          name: "T"
          type: "type"
          allowed_values {
            list {
              type: DT_BFLOAT16
              type: DT_HALF
              type: DT_FLOAT
              type: DT_DOUBLE
              type: DT_INT32
              type: DT_COMPLEX64
              type: DT_COMPLEX128
            }
          }
        }
        attr {
          name: "adj_x"
          type: "bool"
          default_value {
            b: false
          }
        }
        attr {
          name: "adj_y"
          type: "bool"
          default_value {
            b: false
          }
        }
      }
      op {
        name: "BiasAdd"
        input_arg {
          name: "value"
          type_attr: "T"
        }
        input_arg {
          name: "bias"
          type_attr: "T"
        }
        output_arg {
          name: "output"
          type_attr: "T"
        }
        attr {
          name: "T"
          type: "type"
          allowed_values {
            list {
              type: DT_FLOAT
              type: DT_DOUBLE
              type: DT_INT32
              type: DT_UINT8
              type: DT_INT16
              type: DT_INT8
              type: DT_COMPLEX64
              type: DT_INT64
              type: DT_QINT8
              type: DT_QUINT8
              type: DT_QINT32
              type: DT_BFLOAT16
              type: DT_UINT16
              type: DT_COMPLEX128
              type: DT_HALF
              type: DT_UINT32
              type: DT_UINT64
            }
          }
        }
        attr {
          name: "data_format"
          type: "string"
          default_value {
            s: "NHWC"
          }
          allowed_values {
            list {
              s: "NHWC"
              s: "NCHW"
            }
          }
        }
      }
      op {
        name: "Cast"
        input_arg {
          name: "x"
          type_attr: "SrcT"
        }
        output_arg {
          name: "y"
          type_attr: "DstT"
        }
        attr {
          name: "SrcT"
          type: "type"
        }
        attr {
          name: "DstT"
          type: "type"
        }
        attr {
          name: "Truncate"
          type: "bool"
          default_value {
            b: false
          }
        }
      }
      op {
        name: "ConcatV2"
        input_arg {
          name: "values"
          type_attr: "T"
          number_attr: "N"
        }
        input_arg {
          name: "axis"
          type_attr: "Tidx"
        }
        output_arg {
          name: "output"
          type_attr: "T"
        }
        attr {
          name: "N"
          type: "int"
          has_minimum: true
          minimum: 2
        }
        attr {
          name: "T"
          type: "type"
        }
        attr {
          name: "Tidx"
          type: "type"
          default_value {
            type: DT_INT32
          }
          allowed_values {
            list {
              type: DT_INT32
              type: DT_INT64
            }
          }
        }
      }
      op {
        name: "Const"
        output_arg {
          name: "output"
          type_attr: "dtype"
        }
        attr {
          name: "value"
          type: "tensor"
        }
        attr {
          name: "dtype"
          type: "type"
        }
      }
      op {
        name: "Cos"
        input_arg {
          name: "x"
          type_attr: "T"
        }
        output_arg {
          name: "y"
          type_attr: "T"
        }
        attr {
          name: "T"
          type: "type"
          allowed_values {
            list {
              type: DT_BFLOAT16
              type: DT_HALF
              type: DT_FLOAT
              type: DT_DOUBLE
              type: DT_COMPLEX64
              type: DT_COMPLEX128
            }
          }
        }
      }
      op {
        name: "DatasetToSingleElement"
        input_arg {
          name: "dataset"
          type: DT_VARIANT
        }
        output_arg {
          name: "components"
          type_list_attr: "output_types"
        }
        attr {
          name: "output_types"
          type: "list(type)"
          has_minimum: true
          minimum: 1
        }
        attr {
          name: "output_shapes"
          type: "list(shape)"
          has_minimum: true
          minimum: 1
        }
      }
      op {
        name: "Equal"
        input_arg {
          name: "x"
          type_attr: "T"
        }
        input_arg {
          name: "y"
          type_attr: "T"
        }
        output_arg {
          name: "z"
          type: DT_BOOL
        }
        attr {
          name: "T"
          type: "type"
          allowed_values {
            list {
              type: DT_BFLOAT16
              type: DT_HALF
              type: DT_FLOAT
              type: DT_DOUBLE
              type: DT_UINT8
              type: DT_INT8
              type: DT_INT16
              type: DT_INT32
              type: DT_INT64
              type: DT_COMPLEX64
              type: DT_QUINT8
              type: DT_QINT8
              type: DT_QINT32
              type: DT_STRING
              type: DT_BOOL
              type: DT_COMPLEX128
            }
          }
        }
        is_commutative: true
      }
      op {
        name: "Exp"
        input_arg {
          name: "x"
          type_attr: "T"
        }
        output_arg {
          name: "y"
          type_attr: "T"
        }
        attr {
          name: "T"
          type: "type"
          allowed_values {
            list {
              type: DT_BFLOAT16
              type: DT_HALF
              type: DT_FLOAT
              type: DT_DOUBLE
              type: DT_COMPLEX64
              type: DT_COMPLEX128
            }
          }
        }
      }
      op {
        name: "ExpandDims"
        input_arg {
          name: "input"
          type_attr: "T"
        }
        input_arg {
          name: "dim"
          type_attr: "Tdim"
        }
        output_arg {
          name: "output"
          type_attr: "T"
        }
        attr {
          name: "T"
          type: "type"
        }
        attr {
          name: "Tdim"
          type: "type"
          default_value {
            type: DT_INT32
          }
          allowed_values {
            list {
              type: DT_INT32
              type: DT_INT64
            }
          }
        }
      }
      op {
        name: "FloorDiv"
        input_arg {
          name: "x"
          type_attr: "T"
        }
        input_arg {
          name: "y"
          type_attr: "T"
        }
        output_arg {
          name: "z"
          type_attr: "T"
        }
        attr {
          name: "T"
          type: "type"
          allowed_values {
            list {
              type: DT_BFLOAT16
              type: DT_HALF
              type: DT_FLOAT
              type: DT_DOUBLE
              type: DT_UINT8
              type: DT_INT8
              type: DT_UINT16
              type: DT_INT16
              type: DT_INT32
              type: DT_INT64
              type: DT_COMPLEX64
              type: DT_COMPLEX128
            }
          }
        }
      }
      op {
        name: "FloorMod"
        input_arg {
          name: "x"
          type_attr: "T"
        }
        input_arg {
          name: "y"
          type_attr: "T"
        }
        output_arg {
          name: "z"
          type_attr: "T"
        }
        attr {
          name: "T"
          type: "type"
          allowed_values {
            list {
              type: DT_INT32
              type: DT_INT64
              type: DT_BFLOAT16
              type: DT_HALF
              type: DT_FLOAT
              type: DT_DOUBLE
            }
          }
        }
      }
      op {
        name: "GatherNd"
        input_arg {
          name: "params"
          type_attr: "Tparams"
        }
        input_arg {
          name: "indices"
          type_attr: "Tindices"
        }
        output_arg {
          name: "output"
          type_attr: "Tparams"
        }
        attr {
          name: "Tparams"
          type: "type"
        }
        attr {
          name: "Tindices"
          type: "type"
          allowed_values {
            list {
              type: DT_INT32
              type: DT_INT64
            }
          }
        }
      }
      op {
        name: "GatherV2"
        input_arg {
          name: "params"
          type_attr: "Tparams"
        }
        input_arg {
          name: "indices"
          type_attr: "Tindices"
        }
        input_arg {
          name: "axis"
          type_attr: "Taxis"
        }
        output_arg {
          name: "output"
          type_attr: "Tparams"
        }
        attr {
          name: "Tparams"
          type: "type"
        }
        attr {
          name: "Tindices"
          type: "type"
          allowed_values {
            list {
              type: DT_INT32
              type: DT_INT64
            }
          }
        }
        attr {
          name: "Taxis"
          type: "type"
          allowed_values {
            list {
              type: DT_INT32
              type: DT_INT64
            }
          }
        }
      }
      op {
        name: "Greater"
        input_arg {
          name: "x"
          type_attr: "T"
        }
        input_arg {
          name: "y"
          type_attr: "T"
        }
        output_arg {
          name: "z"
          type: DT_BOOL
        }
        attr {
          name: "T"
          type: "type"
          allowed_values {
            list {
              type: DT_FLOAT
              type: DT_DOUBLE
              type: DT_INT32
              type: DT_UINT8
              type: DT_INT16
              type: DT_INT8
              type: DT_INT64
              type: DT_BFLOAT16
              type: DT_UINT16
              type: DT_HALF
              type: DT_UINT32
              type: DT_UINT64
            }
          }
        }
      }
      op {
        name: "GreaterEqual"
        input_arg {
          name: "x"
          type_attr: "T"
        }
        input_arg {
          name: "y"
          type_attr: "T"
        }
        output_arg {
          name: "z"
          type: DT_BOOL
        }
        attr {
          name: "T"
          type: "type"
          allowed_values {
            list {
              type: DT_FLOAT
              type: DT_DOUBLE
              type: DT_INT32
              type: DT_UINT8
              type: DT_INT16
              type: DT_INT8
              type: DT_INT64
              type: DT_BFLOAT16
              type: DT_UINT16
              type: DT_HALF
              type: DT_UINT32
              type: DT_UINT64
            }
          }
        }
      }
      op {
        name: "Identity"
        input_arg {
          name: "input"
          type_attr: "T"
        }
        output_arg {
          name: "output"
          type_attr: "T"
        }
        attr {
          name: "T"
          type: "type"
        }
      }
      op {
        name: "ImageSummary"
        input_arg {
          name: "tag"
          type: DT_STRING
        }
        input_arg {
          name: "tensor"
          type_attr: "T"
        }
        output_arg {
          name: "summary"
          type: DT_STRING
        }
        attr {
          name: "max_images"
          type: "int"
          default_value {
            i: 3
          }
          has_minimum: true
          minimum: 1
        }
        attr {
          name: "T"
          type: "type"
          default_value {
            type: DT_FLOAT
          }
          allowed_values {
            list {
              type: DT_UINT8
              type: DT_FLOAT
              type: DT_HALF
              type: DT_DOUBLE
            }
          }
        }
        attr {
          name: "bad_color"
          type: "tensor"
          default_value {
            tensor {
              dtype: DT_UINT8
              tensor_shape {
                dim {
                  size: 4
                }
              }
              int_val: 255
              int_val: 0
              int_val: 0
              int_val: 255
            }
          }
        }
      }
      op {
        name: "Less"
        input_arg {
          name: "x"
          type_attr: "T"
        }
        input_arg {
          name: "y"
          type_attr: "T"
        }
        output_arg {
          name: "z"
          type: DT_BOOL
        }
        attr {
          name: "T"
          type: "type"
          allowed_values {
            list {
              type: DT_FLOAT
              type: DT_DOUBLE
              type: DT_INT32
              type: DT_UINT8
              type: DT_INT16
              type: DT_INT8
              type: DT_INT64
              type: DT_BFLOAT16
              type: DT_UINT16
              type: DT_HALF
              type: DT_UINT32
              type: DT_UINT64
            }
          }
        }
      }
      op {
        name: "ListDiff"
        input_arg {
          name: "x"
          type_attr: "T"
        }
        input_arg {
          name: "y"
          type_attr: "T"
        }
        output_arg {
          name: "out"
          type_attr: "T"
        }
        output_arg {
          name: "idx"
          type_attr: "out_idx"
        }
        attr {
          name: "T"
          type: "type"
        }
        attr {
          name: "out_idx"
          type: "type"
          default_value {
            type: DT_INT32
          }
          allowed_values {
            list {
              type: DT_INT32
              type: DT_INT64
            }
          }
        }
      }
      op {
        name: "MapDataset"
        input_arg {
          name: "input_dataset"
          type: DT_VARIANT
        }
        input_arg {
          name: "other_arguments"
          type_list_attr: "Targuments"
        }
        output_arg {
          name: "handle"
          type: DT_VARIANT
        }
        attr {
          name: "f"
          type: "func"
        }
        attr {
          name: "Targuments"
          type: "list(type)"
          has_minimum: true
        }
        attr {
          name: "output_types"
          type: "list(type)"
          has_minimum: true
          minimum: 1
        }
        attr {
          name: "output_shapes"
          type: "list(shape)"
          has_minimum: true
          minimum: 1
        }
      }
      op {
        name: "MatMul"
        input_arg {
          name: "a"
          type_attr: "T"
        }
        input_arg {
          name: "b"
          type_attr: "T"
        }
        output_arg {
          name: "product"
          type_attr: "T"
        }
        attr {
          name: "transpose_a"
          type: "bool"
          default_value {
            b: false
          }
        }
        attr {
          name: "transpose_b"
          type: "bool"
          default_value {
            b: false
          }
        }
        attr {
          name: "T"
          type: "type"
          allowed_values {
            list {
              type: DT_BFLOAT16
              type: DT_HALF
              type: DT_FLOAT
              type: DT_DOUBLE
              type: DT_INT32
              type: DT_COMPLEX64
              type: DT_COMPLEX128
            }
          }
        }
      }
      op {
        name: "Max"
        input_arg {
          name: "input"
          type_attr: "T"
        }
        input_arg {
          name: "reduction_indices"
          type_attr: "Tidx"
        }
        output_arg {
          name: "output"
          type_attr: "T"
        }
        attr {
          name: "keep_dims"
          type: "bool"
          default_value {
            b: false
          }
        }
        attr {
          name: "T"
          type: "type"
          allowed_values {
            list {
              type: DT_FLOAT
              type: DT_DOUBLE
              type: DT_INT32
              type: DT_UINT8
              type: DT_INT16
              type: DT_INT8
              type: DT_COMPLEX64
              type: DT_INT64
              type: DT_QINT8
              type: DT_QUINT8
              type: DT_QINT32
              type: DT_BFLOAT16
              type: DT_UINT16
              type: DT_COMPLEX128
              type: DT_HALF
              type: DT_UINT32
              type: DT_UINT64
            }
          }
        }
        attr {
          name: "Tidx"
          type: "type"
          default_value {
            type: DT_INT32
          }
          allowed_values {
            list {
              type: DT_INT32
              type: DT_INT64
            }
          }
        }
      }
      op {
        name: "Maximum"
        input_arg {
          name: "x"
          type_attr: "T"
        }
        input_arg {
          name: "y"
          type_attr: "T"
        }
        output_arg {
          name: "z"
          type_attr: "T"
        }
        attr {
          name: "T"
          type: "type"
          allowed_values {
            list {
              type: DT_BFLOAT16
              type: DT_HALF
              type: DT_FLOAT
              type: DT_DOUBLE
              type: DT_INT32
              type: DT_INT64
            }
          }
        }
        is_commutative: true
      }
      op {
        name: "Mean"
        input_arg {
          name: "input"
          type_attr: "T"
        }
        input_arg {
          name: "reduction_indices"
          type_attr: "Tidx"
        }
        output_arg {
          name: "output"
          type_attr: "T"
        }
        attr {
          name: "keep_dims"
          type: "bool"
          default_value {
            b: false
          }
        }
        attr {
          name: "T"
          type: "type"
          allowed_values {
            list {
              type: DT_FLOAT
              type: DT_DOUBLE
              type: DT_INT32
              type: DT_UINT8
              type: DT_INT16
              type: DT_INT8
              type: DT_COMPLEX64
              type: DT_INT64
              type: DT_QINT8
              type: DT_QUINT8
              type: DT_QINT32
              type: DT_BFLOAT16
              type: DT_UINT16
              type: DT_COMPLEX128
              type: DT_HALF
              type: DT_UINT32
              type: DT_UINT64
            }
          }
        }
        attr {
          name: "Tidx"
          type: "type"
          default_value {
            type: DT_INT32
          }
          allowed_values {
            list {
              type: DT_INT32
              type: DT_INT64
            }
          }
        }
      }
      op {
        name: "Merge"
        input_arg {
          name: "inputs"
          type_attr: "T"
          number_attr: "N"
        }
        output_arg {
          name: "output"
          type_attr: "T"
        }
        output_arg {
          name: "value_index"
          type: DT_INT32
        }
        attr {
          name: "T"
          type: "type"
        }
        attr {
          name: "N"
          type: "int"
          has_minimum: true
          minimum: 1
        }
      }
      op {
        name: "MergeV2Checkpoints"
        input_arg {
          name: "checkpoint_prefixes"
          type: DT_STRING
        }
        input_arg {
          name: "destination_prefix"
          type: DT_STRING
        }
        attr {
          name: "delete_old_dirs"
          type: "bool"
          default_value {
            b: true
          }
        }
        is_stateful: true
      }
      op {
        name: "Mul"
        input_arg {
          name: "x"
          type_attr: "T"
        }
        input_arg {
          name: "y"
          type_attr: "T"
        }
        output_arg {
          name: "z"
          type_attr: "T"
        }
        attr {
          name: "T"
          type: "type"
          allowed_values {
            list {
              type: DT_BFLOAT16
              type: DT_HALF
              type: DT_FLOAT
              type: DT_DOUBLE
              type: DT_UINT8
              type: DT_INT8
              type: DT_UINT16
              type: DT_INT16
              type: DT_INT32
              type: DT_INT64
              type: DT_COMPLEX64
              type: DT_COMPLEX128
            }
          }
        }
        is_commutative: true
      }
      op {
        name: "Neg"
        input_arg {
          name: "x"
          type_attr: "T"
        }
        output_arg {
          name: "y"
          type_attr: "T"
        }
        attr {
          name: "T"
          type: "type"
          allowed_values {
            list {
              type: DT_BFLOAT16
              type: DT_HALF
              type: DT_FLOAT
              type: DT_DOUBLE
              type: DT_INT32
              type: DT_INT64
              type: DT_COMPLEX64
              type: DT_COMPLEX128
            }
          }
        }
      }
      op {
        name: "NoOp"
      }
      op {
        name: "NotEqual"
        input_arg {
          name: "x"
          type_attr: "T"
        }
        input_arg {
          name: "y"
          type_attr: "T"
        }
        output_arg {
          name: "z"
          type: DT_BOOL
        }
        attr {
          name: "T"
          type: "type"
          allowed_values {
            list {
              type: DT_BFLOAT16
              type: DT_HALF
              type: DT_FLOAT
              type: DT_DOUBLE
              type: DT_UINT8
              type: DT_INT8
              type: DT_INT16
              type: DT_INT32
              type: DT_INT64
              type: DT_COMPLEX64
              type: DT_QUINT8
              type: DT_QINT8
              type: DT_QINT32
              type: DT_STRING
              type: DT_BOOL
              type: DT_COMPLEX128
            }
          }
        }
        is_commutative: true
      }
      op {
        name: "Pack"
        input_arg {
          name: "values"
          type_attr: "T"
          number_attr: "N"
        }
        output_arg {
          name: "output"
          type_attr: "T"
        }
        attr {
          name: "N"
          type: "int"
          has_minimum: true
          minimum: 1
        }
        attr {
          name: "T"
          type: "type"
        }
        attr {
          name: "axis"
          type: "int"
          default_value {
            i: 0
          }
        }
      }
      op {
        name: "Pad"
        input_arg {
          name: "input"
          type_attr: "T"
        }
        input_arg {
          name: "paddings"
          type_attr: "Tpaddings"
        }
        output_arg {
          name: "output"
          type_attr: "T"
        }
        attr {
          name: "T"
          type: "type"
        }
        attr {
          name: "Tpaddings"
          type: "type"
          default_value {
            type: DT_INT32
          }
          allowed_values {
            list {
              type: DT_INT32
              type: DT_INT64
            }
          }
        }
      }
      op {
        name: "PaddedBatchDatasetV2"
        input_arg {
          name: "input_dataset"
          type: DT_VARIANT
        }
        input_arg {
          name: "batch_size"
          type: DT_INT64
        }
        input_arg {
          name: "padded_shapes"
          type: DT_INT64
          number_attr: "N"
        }
        input_arg {
          name: "padding_values"
          type_list_attr: "Toutput_types"
        }
        input_arg {
          name: "drop_remainder"
          type: DT_BOOL
        }
        output_arg {
          name: "handle"
          type: DT_VARIANT
        }
        attr {
          name: "Toutput_types"
          type: "list(type)"
          has_minimum: true
          minimum: 1
        }
        attr {
          name: "output_shapes"
          type: "list(shape)"
          has_minimum: true
          minimum: 1
        }
        attr {
          name: "N"
          type: "int"
          has_minimum: true
          minimum: 1
        }
      }
      op {
        name: "Placeholder"
        output_arg {
          name: "output"
          type_attr: "dtype"
        }
        attr {
          name: "dtype"
          type: "type"
        }
        attr {
          name: "shape"
          type: "shape"
          default_value {
            shape {
              unknown_rank: true
            }
          }
        }
      }
      op {
        name: "Pow"
        input_arg {
          name: "x"
          type_attr: "T"
        }
        input_arg {
          name: "y"
          type_attr: "T"
        }
        output_arg {
          name: "z"
          type_attr: "T"
        }
        attr {
          name: "T"
          type: "type"
          allowed_values {
            list {
              type: DT_BFLOAT16
              type: DT_FLOAT
              type: DT_HALF
              type: DT_DOUBLE
              type: DT_INT32
              type: DT_INT64
              type: DT_COMPLEX64
              type: DT_COMPLEX128
            }
          }
        }
      }
      op {
        name: "Prod"
        input_arg {
          name: "input"
          type_attr: "T"
        }
        input_arg {
          name: "reduction_indices"
          type_attr: "Tidx"
        }
        output_arg {
          name: "output"
          type_attr: "T"
        }
        attr {
          name: "keep_dims"
          type: "bool"
          default_value {
            b: false
          }
        }
        attr {
          name: "T"
          type: "type"
          allowed_values {
            list {
              type: DT_FLOAT
              type: DT_DOUBLE
              type: DT_INT32
              type: DT_UINT8
              type: DT_INT16
              type: DT_INT8
              type: DT_COMPLEX64
              type: DT_INT64
              type: DT_QINT8
              type: DT_QUINT8
              type: DT_QINT32
              type: DT_BFLOAT16
              type: DT_UINT16
              type: DT_COMPLEX128
              type: DT_HALF
              type: DT_UINT32
              type: DT_UINT64
            }
          }
        }
        attr {
          name: "Tidx"
          type: "type"
          default_value {
            type: DT_INT32
          }
          allowed_values {
            list {
              type: DT_INT32
              type: DT_INT64
            }
          }
        }
      }
      op {
        name: "RandomStandardNormal"
        input_arg {
          name: "shape"
          type_attr: "T"
        }
        output_arg {
          name: "output"
          type_attr: "dtype"
        }
        attr {
          name: "seed"
          type: "int"
          default_value {
            i: 0
          }
        }
        attr {
          name: "seed2"
          type: "int"
          default_value {
            i: 0
          }
        }
        attr {
          name: "dtype"
          type: "type"
          allowed_values {
            list {
              type: DT_HALF
              type: DT_BFLOAT16
              type: DT_FLOAT
              type: DT_DOUBLE
            }
          }
        }
        attr {
          name: "T"
          type: "type"
          allowed_values {
            list {
              type: DT_INT32
              type: DT_INT64
            }
          }
        }
        is_stateful: true
      }
      op {
        name: "RandomUniform"
        input_arg {
          name: "shape"
          type_attr: "T"
        }
        output_arg {
          name: "output"
          type_attr: "dtype"
        }
        attr {
          name: "seed"
          type: "int"
          default_value {
            i: 0
          }
        }
        attr {
          name: "seed2"
          type: "int"
          default_value {
            i: 0
          }
        }
        attr {
          name: "dtype"
          type: "type"
          allowed_values {
            list {
              type: DT_HALF
              type: DT_BFLOAT16
              type: DT_FLOAT
              type: DT_DOUBLE
            }
          }
        }
        attr {
          name: "T"
          type: "type"
          allowed_values {
            list {
              type: DT_INT32
              type: DT_INT64
            }
          }
        }
        is_stateful: true
      }
      op {
        name: "Range"
        input_arg {
          name: "start"
          type_attr: "Tidx"
        }
        input_arg {
          name: "limit"
          type_attr: "Tidx"
        }
        input_arg {
          name: "delta"
          type_attr: "Tidx"
        }
        output_arg {
          name: "output"
          type_attr: "Tidx"
        }
        attr {
          name: "Tidx"
          type: "type"
          default_value {
            type: DT_INT32
          }
          allowed_values {
            list {
              type: DT_BFLOAT16
              type: DT_FLOAT
              type: DT_DOUBLE
              type: DT_INT32
              type: DT_INT64
            }
          }
        }
      }
      op {
        name: "ReadVariableOp"
        input_arg {
          name: "resource"
          type: DT_RESOURCE
        }
        output_arg {
          name: "value"
          type_attr: "dtype"
        }
        attr {
          name: "dtype"
          type: "type"
        }
        is_stateful: true
      }
      op {
        name: "RealDiv"
        input_arg {
          name: "x"
          type_attr: "T"
        }
        input_arg {
          name: "y"
          type_attr: "T"
        }
        output_arg {
          name: "z"
          type_attr: "T"
        }
        attr {
          name: "T"
          type: "type"
          allowed_values {
            list {
              type: DT_BFLOAT16
              type: DT_HALF
              type: DT_FLOAT
              type: DT_DOUBLE
              type: DT_UINT8
              type: DT_INT8
              type: DT_UINT16
              type: DT_INT16
              type: DT_INT32
              type: DT_INT64
              type: DT_COMPLEX64
              type: DT_COMPLEX128
            }
          }
        }
      }
      op {
        name: "Relu"
        input_arg {
          name: "features"
          type_attr: "T"
        }
        output_arg {
          name: "activations"
          type_attr: "T"
        }
        attr {
          name: "T"
          type: "type"
          allowed_values {
            list {
              type: DT_FLOAT
              type: DT_DOUBLE
              type: DT_INT32
              type: DT_UINT8
              type: DT_INT16
              type: DT_INT8
              type: DT_INT64
              type: DT_BFLOAT16
              type: DT_UINT16
              type: DT_HALF
              type: DT_UINT32
              type: DT_UINT64
              type: DT_QINT8
            }
          }
        }
      }
      op {
        name: "Reshape"
        input_arg {
          name: "tensor"
          type_attr: "T"
        }
        input_arg {
          name: "shape"
          type_attr: "Tshape"
        }
        output_arg {
          name: "output"
          type_attr: "T"
        }
        attr {
          name: "T"
          type: "type"
        }
        attr {
          name: "Tshape"
          type: "type"
          default_value {
            type: DT_INT32
          }
          allowed_values {
            list {
              type: DT_INT32
              type: DT_INT64
            }
          }
        }
      }
      op {
        name: "RestoreV2"
        input_arg {
          name: "prefix"
          type: DT_STRING
        }
        input_arg {
          name: "tensor_names"
          type: DT_STRING
        }
        input_arg {
          name: "shape_and_slices"
          type: DT_STRING
        }
        output_arg {
          name: "tensors"
          type_list_attr: "dtypes"
        }
        attr {
          name: "dtypes"
          type: "list(type)"
          has_minimum: true
          minimum: 1
        }
        is_stateful: true
      }
      op {
        name: "Rsqrt"
        input_arg {
          name: "x"
          type_attr: "T"
        }
        output_arg {
          name: "y"
          type_attr: "T"
        }
        attr {
          name: "T"
          type: "type"
          allowed_values {
            list {
              type: DT_BFLOAT16
              type: DT_HALF
              type: DT_FLOAT
              type: DT_DOUBLE
              type: DT_COMPLEX64
              type: DT_COMPLEX128
            }
          }
        }
      }
      op {
        name: "SaveV2"
        input_arg {
          name: "prefix"
          type: DT_STRING
        }
        input_arg {
          name: "tensor_names"
          type: DT_STRING
        }
        input_arg {
          name: "shape_and_slices"
          type: DT_STRING
        }
        input_arg {
          name: "tensors"
          type_list_attr: "dtypes"
        }
        attr {
          name: "dtypes"
          type: "list(type)"
          has_minimum: true
          minimum: 1
        }
        is_stateful: true
      }
      op {
        name: "ScalarSummary"
        input_arg {
          name: "tags"
          type: DT_STRING
        }
        input_arg {
          name: "values"
          type_attr: "T"
        }
        output_arg {
          name: "summary"
          type: DT_STRING
        }
        attr {
          name: "T"
          type: "type"
          allowed_values {
            list {
              type: DT_FLOAT
              type: DT_DOUBLE
              type: DT_INT32
              type: DT_UINT8
              type: DT_INT16
              type: DT_INT8
              type: DT_INT64
              type: DT_BFLOAT16
              type: DT_UINT16
              type: DT_HALF
              type: DT_UINT32
              type: DT_UINT64
            }
          }
        }
      }
      op {
        name: "ScatterNd"
        input_arg {
          name: "indices"
          type_attr: "Tindices"
        }
        input_arg {
          name: "updates"
          type_attr: "T"
        }
        input_arg {
          name: "shape"
          type_attr: "Tindices"
        }
        output_arg {
          name: "output"
          type_attr: "T"
        }
        attr {
          name: "T"
          type: "type"
        }
        attr {
          name: "Tindices"
          type: "type"
          allowed_values {
            list {
              type: DT_INT32
              type: DT_INT64
            }
          }
        }
      }
      op {
        name: "Shape"
        input_arg {
          name: "input"
          type_attr: "T"
        }
        output_arg {
          name: "output"
          type_attr: "out_type"
        }
        attr {
          name: "T"
          type: "type"
        }
        attr {
          name: "out_type"
          type: "type"
          default_value {
            type: DT_INT32
          }
          allowed_values {
            list {
              type: DT_INT32
              type: DT_INT64
            }
          }
        }
      }
      op {
        name: "ShardedFilename"
        input_arg {
          name: "basename"
          type: DT_STRING
        }
        input_arg {
          name: "shard"
          type: DT_INT32
        }
        input_arg {
          name: "num_shards"
          type: DT_INT32
        }
        output_arg {
          name: "filename"
          type: DT_STRING
        }
      }
      op {
        name: "Sin"
        input_arg {
          name: "x"
          type_attr: "T"
        }
        output_arg {
          name: "y"
          type_attr: "T"
        }
        attr {
          name: "T"
          type: "type"
          allowed_values {
            list {
              type: DT_BFLOAT16
              type: DT_HALF
              type: DT_FLOAT
              type: DT_DOUBLE
              type: DT_COMPLEX64
              type: DT_COMPLEX128
            }
          }
        }
      }
      op {
        name: "Softmax"
        input_arg {
          name: "logits"
          type_attr: "T"
        }
        output_arg {
          name: "softmax"
          type_attr: "T"
        }
        attr {
          name: "T"
          type: "type"
          allowed_values {
            list {
              type: DT_HALF
              type: DT_BFLOAT16
              type: DT_FLOAT
              type: DT_DOUBLE
            }
          }
        }
      }
      op {
        name: "Split"
        input_arg {
          name: "split_dim"
          type: DT_INT32
        }
        input_arg {
          name: "value"
          type_attr: "T"
        }
        output_arg {
          name: "output"
          type_attr: "T"
          number_attr: "num_split"
        }
        attr {
          name: "num_split"
          type: "int"
          has_minimum: true
          minimum: 1
        }
        attr {
          name: "T"
          type: "type"
        }
      }
      op {
        name: "Square"
        input_arg {
          name: "x"
          type_attr: "T"
        }
        output_arg {
          name: "y"
          type_attr: "T"
        }
        attr {
          name: "T"
          type: "type"
          allowed_values {
            list {
              type: DT_BFLOAT16
              type: DT_HALF
              type: DT_FLOAT
              type: DT_DOUBLE
              type: DT_INT32
              type: DT_INT64
              type: DT_COMPLEX64
              type: DT_COMPLEX128
            }
          }
        }
      }
      op {
        name: "Squeeze"
        input_arg {
          name: "input"
          type_attr: "T"
        }
        output_arg {
          name: "output"
          type_attr: "T"
        }
        attr {
          name: "T"
          type: "type"
        }
        attr {
          name: "squeeze_dims"
          type: "list(int)"
          default_value {
            list {
            }
          }
          has_minimum: true
        }
      }
      op {
        name: "StridedSlice"
        input_arg {
          name: "input"
          type_attr: "T"
        }
        input_arg {
          name: "begin"
          type_attr: "Index"
        }
        input_arg {
          name: "end"
          type_attr: "Index"
        }
        input_arg {
          name: "strides"
          type_attr: "Index"
        }
        output_arg {
          name: "output"
          type_attr: "T"
        }
        attr {
          name: "T"
          type: "type"
        }
        attr {
          name: "Index"
          type: "type"
          allowed_values {
            list {
              type: DT_INT32
              type: DT_INT64
            }
          }
        }
        attr {
          name: "begin_mask"
          type: "int"
          default_value {
            i: 0
          }
        }
        attr {
          name: "end_mask"
          type: "int"
          default_value {
            i: 0
          }
        }
        attr {
          name: "ellipsis_mask"
          type: "int"
          default_value {
            i: 0
          }
        }
        attr {
          name: "new_axis_mask"
          type: "int"
          default_value {
            i: 0
          }
        }
        attr {
          name: "shrink_axis_mask"
          type: "int"
          default_value {
            i: 0
          }
        }
      }
      op {
        name: "StringJoin"
        input_arg {
          name: "inputs"
          type: DT_STRING
          number_attr: "N"
        }
        output_arg {
          name: "output"
          type: DT_STRING
        }
        attr {
          name: "N"
          type: "int"
          has_minimum: true
          minimum: 1
        }
        attr {
          name: "separator"
          type: "string"
          default_value {
            s: ""
          }
        }
      }
      op {
        name: "Sub"
        input_arg {
          name: "x"
          type_attr: "T"
        }
        input_arg {
          name: "y"
          type_attr: "T"
        }
        output_arg {
          name: "z"
          type_attr: "T"
        }
        attr {
          name: "T"
          type: "type"
          allowed_values {
            list {
              type: DT_BFLOAT16
              type: DT_HALF
              type: DT_FLOAT
              type: DT_DOUBLE
              type: DT_UINT8
              type: DT_INT8
              type: DT_UINT16
              type: DT_INT16
              type: DT_INT32
              type: DT_INT64
              type: DT_COMPLEX64
              type: DT_COMPLEX128
            }
          }
        }
      }
      op {
        name: "Sum"
        input_arg {
          name: "input"
          type_attr: "T"
        }
        input_arg {
          name: "reduction_indices"
          type_attr: "Tidx"
        }
        output_arg {
          name: "output"
          type_attr: "T"
        }
        attr {
          name: "keep_dims"
          type: "bool"
          default_value {
            b: false
          }
        }
        attr {
          name: "T"
          type: "type"
          allowed_values {
            list {
              type: DT_FLOAT
              type: DT_DOUBLE
              type: DT_INT32
              type: DT_UINT8
              type: DT_INT16
              type: DT_INT8
              type: DT_COMPLEX64
              type: DT_INT64
              type: DT_QINT8
              type: DT_QUINT8
              type: DT_QINT32
              type: DT_BFLOAT16
              type: DT_UINT16
              type: DT_COMPLEX128
              type: DT_HALF
              type: DT_UINT32
              type: DT_UINT64
            }
          }
        }
        attr {
          name: "Tidx"
          type: "type"
          default_value {
            type: DT_INT32
          }
          allowed_values {
            list {
              type: DT_INT32
              type: DT_INT64
            }
          }
        }
      }
      op {
        name: "Switch"
        input_arg {
          name: "data"
          type_attr: "T"
        }
        input_arg {
          name: "pred"
          type: DT_BOOL
        }
        output_arg {
          name: "output_false"
          type_attr: "T"
        }
        output_arg {
          name: "output_true"
          type_attr: "T"
        }
        attr {
          name: "T"
          type: "type"
        }
      }
      op {
        name: "TensorSliceDataset"
        input_arg {
          name: "components"
          type_list_attr: "Toutput_types"
        }
        output_arg {
          name: "handle"
          type: DT_VARIANT
        }
        attr {
          name: "Toutput_types"
          type: "list(type)"
          has_minimum: true
          minimum: 1
        }
        attr {
          name: "output_shapes"
          type: "list(shape)"
          has_minimum: true
          minimum: 1
        }
        is_stateful: true
      }
      op {
        name: "TensorSummaryV2"
        input_arg {
          name: "tag"
          type: DT_STRING
        }
        input_arg {
          name: "tensor"
          type_attr: "T"
        }
        input_arg {
          name: "serialized_summary_metadata"
          type: DT_STRING
        }
        output_arg {
          name: "summary"
          type: DT_STRING
        }
        attr {
          name: "T"
          type: "type"
        }
      }
      op {
        name: "Tile"
        input_arg {
          name: "input"
          type_attr: "T"
        }
        input_arg {
          name: "multiples"
          type_attr: "Tmultiples"
        }
        output_arg {
          name: "output"
          type_attr: "T"
        }
        attr {
          name: "T"
          type: "type"
        }
        attr {
          name: "Tmultiples"
          type: "type"
          default_value {
            type: DT_INT32
          }
          allowed_values {
            list {
              type: DT_INT32
              type: DT_INT64
            }
          }
        }
      }
      op {
        name: "Transpose"
        input_arg {
          name: "x"
          type_attr: "T"
        }
        input_arg {
          name: "perm"
          type_attr: "Tperm"
        }
        output_arg {
          name: "y"
          type_attr: "T"
        }
        attr {
          name: "T"
          type: "type"
        }
        attr {
          name: "Tperm"
          type: "type"
          default_value {
            type: DT_INT32
          }
          allowed_values {
            list {
              type: DT_INT32
              type: DT_INT64
            }
          }
        }
      }
      op {
        name: "VarHandleOp"
        output_arg {
          name: "resource"
          type: DT_RESOURCE
        }
        attr {
          name: "container"
          type: "string"
          default_value {
            s: ""
          }
        }
        attr {
          name: "shared_name"
          type: "string"
          default_value {
            s: ""
          }
        }
        attr {
          name: "dtype"
          type: "type"
        }
        attr {
          name: "shape"
          type: "shape"
        }
        is_stateful: true
      }
      op {
        name: "VarIsInitializedOp"
        input_arg {
          name: "resource"
          type: DT_RESOURCE
        }
        output_arg {
          name: "is_initialized"
          type: DT_BOOL
        }
        is_stateful: true
      }
      op {
        name: "VariableV2"
        output_arg {
          name: "ref"
          type_attr: "dtype"
          is_ref: true
        }
        attr {
          name: "shape"
          type: "shape"
        }
        attr {
          name: "dtype"
          type: "type"
        }
        attr {
          name: "container"
          type: "string"
          default_value {
            s: ""
          }
        }
        attr {
          name: "shared_name"
          type: "string"
          default_value {
            s: ""
          }
        }
        is_stateful: true
      }
      op {
        name: "Where"
        input_arg {
          name: "input"
          type_attr: "T"
        }
        output_arg {
          name: "index"
          type: DT_INT64
        }
        attr {
          name: "T"
          type: "type"
          default_value {
            type: DT_BOOL
          }
          allowed_values {
            list {
              type: DT_FLOAT
              type: DT_DOUBLE
              type: DT_INT32
              type: DT_UINT8
              type: DT_INT16
              type: DT_INT8
              type: DT_COMPLEX64
              type: DT_INT64
              type: DT_QINT8
              type: DT_QUINT8
              type: DT_QINT32
              type: DT_BFLOAT16
              type: DT_UINT16
              type: DT_COMPLEX128
              type: DT_HALF
              type: DT_UINT32
              type: DT_UINT64
              type: DT_BOOL
            }
          }
        }
      }
    }
    tags: "serve"
    tensorflow_version: "1.11.0"
    tensorflow_git_version: "v1.11.0-0-gc19e29306c"
    stripped_default_attrs: true
  }
  graph_def {
    node {
      name: "global_step/Initializer/zeros"
      op: "Const"
      attr {
        key: "_class"
        value {
          list {
            s: "loc:@global_step"
          }
        }
      }
      attr {
        key: "_output_shapes"
        value {
          list {
            shape {
            }
          }
        }
      }
      attr {
        key: "dtype"
        value {
          type: DT_INT64
        }
      }
      attr {
        key: "value"
        value {
          tensor {
            dtype: DT_INT64
            tensor_shape {
            }
            int64_val: 0
          }
        }
      }
    }
    node {
      name: "global_step"
      op: "VariableV2"
      attr {
        key: "_class"
        value {
          list {
            s: "loc:@global_step"
          }
        }
      }
      attr {
        key: "_output_shapes"
        value {
          list {
            shape {
            }
          }
        }
      }
      attr {
        key: "dtype"
        value {
          type: DT_INT64
        }
      }
      attr {
        key: "shape"
        value {
          shape {
          }
        }
      }
    }
    node {
      name: "global_step/Assign"
      op: "Assign"
      input: "global_step"
      input: "global_step/Initializer/zeros"
      attr {
        key: "T"
        value {
          type: DT_INT64
        }
      }
      attr {
        key: "_class"
        value {
          list {
            s: "loc:@global_step"
          }
        }
      }
      attr {
        key: "_output_shapes"
        value {
          list {
            shape {
            }
          }
        }
      }
    }
    node {
      name: "global_step/read"
      op: "Identity"
      input: "global_step"
      attr {
        key: "T"
        value {
          type: DT_INT64
        }
      }
      attr {
        key: "_class"
        value {
          list {
            s: "loc:@global_step"
          }
        }
      }
      attr {
        key: "_output_shapes"
        value {
          list {
            shape {
            }
          }
        }
      }
    }
    node {
      name: "serialized_example"
      op: "Placeholder"
      attr {
        key: "_output_shapes"
        value {
          list {
            shape {
              dim {
                size: -1
              }
            }
          }
        }
      }
      attr {
        key: "dtype"
        value {
          type: DT_STRING
        }
      }
      attr {
        key: "shape"
        value {
          shape {
            dim {
              size: -1
            }
          }
        }
      }
    }
    node {
      name: "Shape"
      op: "Shape"
      input: "serialized_example"
      attr {
        key: "T"
        value {
          type: DT_STRING
        }
      }
      attr {
        key: "_output_shapes"
        value {
          list {
            shape {
              dim {
                size: 1
              }
            }
          }
        }
      }
      attr {
        key: "out_type"
        value {
          type: DT_INT64
        }
      }
    }
    node {
      name: "strided_slice/stack"
      op: "Const"
      attr {
        key: "_output_shapes"
        value {
          list {
            shape {
              dim {
                size: 1
              }
            }
          }
        }
      }
      attr {
        key: "dtype"
        value {
          type: DT_INT32
        }
      }
      attr {
        key: "value"
        value {
          tensor {
            dtype: DT_INT32
            tensor_shape {
              dim {
                size: 1
              }
            }
            int_val: 0
          }
        }
      }
    }
    node {
      name: "strided_slice/stack_1"
      op: "Const"
      attr {
        key: "_output_shapes"
        value {
          list {
            shape {
              dim {
                size: 1
              }
            }
          }
        }
      }
      attr {
        key: "dtype"
        value {
          type: DT_INT32
        }
      }
      attr {
        key: "value"
        value {
          tensor {
            dtype: DT_INT32
            tensor_shape {
              dim {
                size: 1
              }
            }
            int_val: 1
          }
        }
      }
    }
    node {
      name: "strided_slice/stack_2"
      op: "Const"
      attr {
        key: "_output_shapes"
        value {
          list {
            shape {
              dim {
                size: 1
              }
            }
          }
        }
      }
      attr {
        key: "dtype"
        value {
          type: DT_INT32
        }
      }
      attr {
        key: "value"
        value {
          tensor {
            dtype: DT_INT32
            tensor_shape {
              dim {
                size: 1
              }
            }
            int_val: 1
          }
        }
      }
    }
    node {
      name: "strided_slice"
      op: "StridedSlice"
      input: "Shape"
      input: "strided_slice/stack"
      input: "strided_slice/stack_1"
      input: "strided_slice/stack_2"
      attr {
        key: "Index"
        value {
          type: DT_INT32
        }
      }
      attr {
        key: "T"
        value {
          type: DT_INT64
        }
      }
      attr {
        key: "_output_shapes"
        value {
          list {
            shape {
            }
          }
        }
      }
      attr {
        key: "shrink_axis_mask"
        value {
          i: 1
        }
      }
    }
    node {
      name: "Const"
      op: "Const"
      attr {
        key: "_output_shapes"
        value {
          list {
            shape {
              dim {
                size: 1
              }
            }
          }
        }
      }
      attr {
        key: "dtype"
        value {
          type: DT_INT64
        }
      }
      attr {
        key: "value"
        value {
          tensor {
            dtype: DT_INT64
            tensor_shape {
              dim {
                size: 1
              }
            }
            int64_val: 1
          }
        }
      }
    }
    node {
      name: "Const_1"
      op: "Const"
      attr {
        key: "_output_shapes"
        value {
          list {
            shape {
              dim {
                size: 1
              }
            }
          }
        }
      }
      attr {
        key: "dtype"
        value {
          type: DT_INT64
        }
      }
      attr {
        key: "value"
        value {
          tensor {
            dtype: DT_INT64
            tensor_shape {
              dim {
                size: 1
              }
            }
            int64_val: 1
          }
        }
      }
    }
    node {
      name: "Const_2"
      op: "Const"
      attr {
        key: "_output_shapes"
        value {
          list {
            shape {
              dim {
                size: 1
              }
            }
          }
        }
      }
      attr {
        key: "dtype"
        value {
          type: DT_INT64
        }
      }
      attr {
        key: "value"
        value {
          tensor {
            dtype: DT_INT64
            tensor_shape {
              dim {
                size: 1
              }
            }
            int64_val: -1
          }
        }
      }
    }
    node {
      name: "Const_3"
      op: "Const"
      attr {
        key: "_output_shapes"
        value {
          list {
            shape {
              dim {
                size: 1
              }
            }
          }
        }
      }
      attr {
        key: "dtype"
        value {
          type: DT_INT64
        }
      }
      attr {
        key: "value"
        value {
          tensor {
            dtype: DT_INT64
            tensor_shape {
              dim {
                size: 1
              }
            }
            int64_val: -1
          }
        }
      }
    }
    node {
      name: "padding_value"
      op: "Const"
      attr {
        key: "_output_shapes"
        value {
          list {
            shape {
            }
          }
        }
      }
      attr {
        key: "dtype"
        value {
          type: DT_INT32
        }
      }
      attr {
        key: "value"
        value {
          tensor {
            dtype: DT_INT32
            tensor_shape {
            }
            int_val: 0
          }
        }
      }
    }
    node {
      name: "padding_value_1"
      op: "Const"
      attr {
        key: "_output_shapes"
        value {
          list {
            shape {
            }
          }
        }
      }
      attr {
        key: "dtype"
        value {
          type: DT_INT32
        }
      }
      attr {
        key: "value"
        value {
          tensor {
            dtype: DT_INT32
            tensor_shape {
            }
            int_val: 0
          }
        }
      }
    }
    node {
      name: "padding_value_2"
      op: "Const"
      attr {
        key: "_output_shapes"
        value {
          list {
            shape {
            }
          }
        }
      }
      attr {
        key: "dtype"
        value {
          type: DT_INT32
        }
      }
      attr {
        key: "value"
        value {
          tensor {
            dtype: DT_INT32
            tensor_shape {
            }
            int_val: 0
          }
        }
      }
    }
    node {
      name: "padding_value_3"
      op: "Const"
      attr {
        key: "_output_shapes"
        value {
          list {
            shape {
            }
          }
        }
      }
      attr {
        key: "dtype"
        value {
          type: DT_INT32
        }
      }
      attr {
        key: "value"
        value {
          tensor {
            dtype: DT_INT32
            tensor_shape {
            }
            int_val: 0
          }
        }
      }
    }
    node {
      name: "drop_remainder"
      op: "Const"
      attr {
        key: "_output_shapes"
        value {
          list {
            shape {
            }
          }
        }
      }
      attr {
        key: "dtype"
        value {
          type: DT_BOOL
        }
      }
      attr {
        key: "value"
        value {
          tensor {
            dtype: DT_BOOL
            tensor_shape {
            }
            bool_val: false
          }
        }
      }
    }
    node {
      name: "TensorSliceDataset"
      op: "TensorSliceDataset"
      input: "serialized_example"
      attr {
        key: "Toutput_types"
        value {
          list {
            type: DT_STRING
          }
        }
      }
      attr {
        key: "_output_shapes"
        value {
          list {
            shape {
            }
          }
        }
      }
      attr {
        key: "output_shapes"
        value {
          list {
            shape {
            }
          }
        }
      }
    }
    node {
      name: "MapDataset"
      op: "MapDataset"
      input: "TensorSliceDataset"
      attr {
        key: "Targuments"
        value {
          list {
          }
        }
      }
      attr {
        key: "_output_shapes"
        value {
          list {
            shape {
            }
          }
        }
      }
      attr {
        key: "f"
        value {
          func {
            name: "tf_data_structured_function_wrapper_bshwJPcRWbY"
          }
        }
      }
      attr {
        key: "output_shapes"
        value {
          list {
            shape {
              dim {
                size: 1
              }
            }
            shape {
              dim {
                size: 1
              }
            }
            shape {
              dim {
                size: -1
              }
            }
            shape {
              dim {
                size: -1
              }
            }
          }
        }
      }
      attr {
        key: "output_types"
        value {
          list {
            type: DT_INT64
            type: DT_INT64
            type: DT_INT64
            type: DT_INT64
          }
        }
      }
    }
    node {
      name: "MapDataset_1"
      op: "MapDataset"
      input: "MapDataset"
      attr {
        key: "Targuments"
        value {
          list {
          }
        }
      }
      attr {
        key: "_output_shapes"
        value {
          list {
            shape {
            }
          }
        }
      }
      attr {
        key: "f"
        value {
          func {
            name: "tf_data_structured_function_wrapper_EVCvgogkMRU"
          }
        }
      }
      attr {
        key: "output_shapes"
        value {
          list {
            shape {
              dim {
                size: 1
              }
            }
            shape {
              dim {
                size: 1
              }
            }
            shape {
              dim {
                size: -1
              }
            }
            shape {
              dim {
                size: -1
              }
            }
          }
        }
      }
      attr {
        key: "output_types"
        value {
          list {
            type: DT_INT64
            type: DT_INT64
            type: DT_INT64
            type: DT_INT64
          }
        }
      }
    }
    node {
      name: "MapDataset_2"
      op: "MapDataset"
      input: "MapDataset_1"
      attr {
        key: "Targuments"
        value {
          list {
          }
        }
      }
      attr {
        key: "_output_shapes"
        value {
          list {
            shape {
            }
          }
        }
      }
      attr {
        key: "f"
        value {
          func {
            name: "tf_data_structured_function_wrapper_EVCvgogkMRU"
          }
        }
      }
      attr {
        key: "output_shapes"
        value {
          list {
            shape {
              dim {
                size: 1
              }
            }
            shape {
              dim {
                size: 1
              }
            }
            shape {
              dim {
                size: -1
              }
            }
            shape {
              dim {
                size: -1
              }
            }
          }
        }
      }
      attr {
        key: "output_types"
        value {
          list {
            type: DT_INT64
            type: DT_INT64
            type: DT_INT64
            type: DT_INT64
          }
        }
      }
    }
    node {
      name: "MapDataset_3"
      op: "MapDataset"
      input: "MapDataset_2"
      attr {
        key: "Targuments"
        value {
          list {
          }
        }
      }
      attr {
        key: "_output_shapes"
        value {
          list {
            shape {
            }
          }
        }
      }
      attr {
        key: "f"
        value {
          func {
            name: "tf_data_structured_function_wrapper_qI9kamzZnOg"
          }
        }
      }
      attr {
        key: "output_shapes"
        value {
          list {
            shape {
              dim {
                size: 1
              }
            }
            shape {
              dim {
                size: 1
              }
            }
            shape {
              dim {
                size: -1
              }
            }
            shape {
              dim {
                size: -1
              }
            }
          }
        }
      }
      attr {
        key: "output_types"
        value {
          list {
            type: DT_INT32
            type: DT_INT32
            type: DT_INT32
            type: DT_INT32
          }
        }
      }
    }
    node {
      name: "PaddedBatchDatasetV2"
      op: "PaddedBatchDatasetV2"
      input: "MapDataset_3"
      input: "strided_slice"
      input: "Const"
      input: "Const_1"
      input: "Const_2"
      input: "Const_3"
      input: "padding_value"
      input: "padding_value_1"
      input: "padding_value_2"
      input: "padding_value_3"
      input: "drop_remainder"
      attr {
        key: "N"
        value {
          i: 4
        }
      }
      attr {
        key: "Toutput_types"
        value {
          list {
            type: DT_INT32
            type: DT_INT32
            type: DT_INT32
            type: DT_INT32
          }
        }
      }
      attr {
        key: "_output_shapes"
        value {
          list {
            shape {
            }
          }
        }
      }
      attr {
        key: "output_shapes"
        value {
          list {
            shape {
              dim {
                size: -1
              }
              dim {
                size: 1
              }
            }
            shape {
              dim {
                size: -1
              }
              dim {
                size: 1
              }
            }
            shape {
              dim {
                size: -1
              }
              dim {
                size: -1
              }
            }
            shape {
              dim {
                size: -1
              }
              dim {
                size: -1
              }
            }
          }
        }
      }
    }
    node {
      name: "MapDataset_4"
      op: "MapDataset"
      input: "PaddedBatchDatasetV2"
      attr {
        key: "Targuments"
        value {
          list {
          }
        }
      }
      attr {
        key: "_output_shapes"
        value {
          list {
            shape {
            }
          }
        }
      }
      attr {
        key: "f"
        value {
          func {
            name: "tf_data_structured_function_wrapper_bkLTuN6B4xc"
          }
        }
      }
      attr {
        key: "output_shapes"
        value {
          list {
            shape {
              dim {
                size: -1
              }
              dim {
                size: 1
              }
            }
            shape {
              dim {
                size: -1
              }
              dim {
                size: 1
              }
            }
            shape {
              dim {
                size: -1
              }
              dim {
                size: -1
              }
              dim {
                size: 1
              }
              dim {
                size: 1
              }
            }
            shape {
              dim {
                size: -1
              }
              dim {
                size: -1
              }
              dim {
                size: 1
              }
              dim {
                size: 1
              }
            }
          }
        }
      }
      attr {
        key: "output_types"
        value {
          list {
            type: DT_INT32
            type: DT_INT32
            type: DT_INT32
            type: DT_INT32
          }
        }
      }
    }
    node {
      name: "DatasetToSingleElement"
      op: "DatasetToSingleElement"
      input: "MapDataset_4"
      attr {
        key: "_output_shapes"
        value {
          list {
            shape {
              dim {
                size: -1
              }
              dim {
                size: 1
              }
            }
            shape {
              dim {
                size: -1
              }
              dim {
                size: 1
              }
            }
            shape {
              dim {
                size: -1
              }
              dim {
                size: -1
              }
              dim {
                size: 1
              }
              dim {
                size: 1
              }
            }
            shape {
              dim {
                size: -1
              }
              dim {
                size: -1
              }
              dim {
                size: 1
              }
              dim {
                size: 1
              }
            }
          }
        }
      }
      attr {
        key: "output_shapes"
        value {
          list {
            shape {
              dim {
                size: -1
              }
              dim {
                size: 1
              }
            }
            shape {
              dim {
                size: -1
              }
              dim {
                size: 1
              }
            }
            shape {
              dim {
                size: -1
              }
              dim {
                size: -1
              }
              dim {
                size: 1
              }
              dim {
                size: 1
              }
            }
            shape {
              dim {
                size: -1
              }
              dim {
                size: -1
              }
              dim {
                size: 1
              }
              dim {
                size: 1
              }
            }
          }
        }
      }
      attr {
        key: "output_types"
        value {
          list {
            type: DT_INT32
            type: DT_INT32
            type: DT_INT32
            type: DT_INT32
          }
        }
      }
    }
    node {
      name: "Const_4"
      op: "Const"
      attr {
        key: "_output_shapes"
        value {
          list {
            shape {
              dim {
                size: 2
              }
            }
          }
        }
      }
      attr {
        key: "dtype"
        value {
          type: DT_STRING
        }
      }
      attr {
        key: "value"
        value {
          tensor {
            dtype: DT_STRING
            tensor_shape {
              dim {
                size: 2
              }
            }
            string_val: "optimizer_adafactor_clipping_threshold"
            string_val: "1.0"
          }
        }
      }
    }
    node {
      name: "Const_5"
      op: "Const"
      attr {
        key: "_output_shapes"
        value {
          list {
            shape {
              dim {
                size: 2
              }
            }
          }
        }
      }
      attr {
        key: "dtype"
        value {
          type: DT_STRING
        }
      }
      attr {
        key: "value"
        value {
          tensor {
            dtype: DT_STRING
            tensor_shape {
              dim {
                size: 2
              }
            }
            string_val: "parameter_attention_key_channels"
            string_val: "0"
          }
        }
      }
    }
    node {
      name: "Const_6"
      op: "Const"
      attr {
        key: "_output_shapes"
        value {
          list {
            shape {
              dim {
                size: 2
              }
            }
          }
        }
      }
      attr {
        key: "dtype"
        value {
          type: DT_STRING
        }
      }
      attr {
        key: "value"
        value {
          tensor {
            dtype: DT_STRING
            tensor_shape {
              dim {
                size: 2
              }
            }
            string_val: "multiply_embedding_mode"
            string_val: "sqrt_depth"
          }
        }
      }
    }
    node {
      name: "Const_7"
      op: "Const"
      attr {
        key: "_output_shapes"
        value {
          list {
            shape {
              dim {
                size: 2
              }
            }
          }
        }
      }
      attr {
        key: "dtype"
        value {
          type: DT_STRING
        }
      }
      attr {
        key: "value"
        value {
          tensor {
            dtype: DT_STRING
            tensor_shape {
              dim {
                size: 2
              }
            }
            string_val: "layer_postprocess_sequence"
            string_val: "da"
          }
        }
      }
    }
    node {
      name: "Const_8"
      op: "Const"
      attr {
        key: "_output_shapes"
        value {
          list {
            shape {
              dim {
                size: 2
              }
            }
          }
        }
      }
      attr {
        key: "dtype"
        value {
          type: DT_STRING
        }
      }
      attr {
        key: "value"
        value {
          tensor {
            dtype: DT_STRING
            tensor_shape {
              dim {
                size: 2
              }
            }
            string_val: "learning_rate"
            string_val: "0.2"
          }
        }
      }
    }
    node {
      name: "Const_9"
      op: "Const"
      attr {
        key: "_output_shapes"
        value {
          list {
            shape {
              dim {
                size: 2
              }
            }
          }
        }
      }
      attr {
        key: "dtype"
        value {
          type: DT_STRING
        }
      }
      attr {
        key: "value"
        value {
          tensor {
            dtype: DT_STRING
            tensor_shape {
              dim {
                size: 2
              }
            }
            string_val: "optimizer_adafactor_memory_exponent"
            string_val: "0.8"
          }
        }
      }
    }
    node {
      name: "Const_10"
      op: "Const"
      attr {
        key: "_output_shapes"
        value {
          list {
            shape {
              dim {
                size: 2
              }
            }
          }
        }
      }
      attr {
        key: "dtype"
        value {
          type: DT_STRING
        }
      }
      attr {
        key: "value"
        value {
          tensor {
            dtype: DT_STRING
            tensor_shape {
              dim {
                size: 2
              }
            }
            string_val: "moe_loss_coef"
            string_val: "0.001"
          }
        }
      }
    }
    node {
      name: "Const_11"
      op: "Const"
      attr {
        key: "_output_shapes"
        value {
          list {
            shape {
              dim {
                size: 2
              }
            }
          }
        }
      }
      attr {
        key: "dtype"
        value {
          type: DT_STRING
        }
      }
      attr {
        key: "value"
        value {
          tensor {
            dtype: DT_STRING
            tensor_shape {
              dim {
                size: 2
              }
            }
            string_val: "dropout"
            string_val: "0.0"
          }
        }
      }
    }
    node {
      name: "Const_12"
      op: "Const"
      attr {
        key: "_output_shapes"
        value {
          list {
            shape {
              dim {
                size: 2
              }
            }
          }
        }
      }
      attr {
        key: "dtype"
        value {
          type: DT_STRING
        }
      }
      attr {
        key: "value"
        value {
          tensor {
            dtype: DT_STRING
            tensor_shape {
              dim {
                size: 2
              }
            }
            string_val: "learning_rate_warmup_steps"
            string_val: "8000"
          }
        }
      }
    }
    node {
      name: "Const_13"
      op: "Const"
      attr {
        key: "_output_shapes"
        value {
          list {
            shape {
              dim {
                size: 2
              }
            }
          }
        }
      }
      attr {
        key: "dtype"
        value {
          type: DT_STRING
        }
      }
      attr {
        key: "value"
        value {
          tensor {
            dtype: DT_STRING
            tensor_shape {
              dim {
                size: 2
              }
            }
            string_val: "num_encoder_layers"
            string_val: "0"
          }
        }
      }
    }
    node {
      name: "Const_14"
      op: "Const"
      attr {
        key: "_output_shapes"
        value {
          list {
            shape {
              dim {
                size: 2
              }
            }
          }
        }
      }
      attr {
        key: "dtype"
        value {
          type: DT_STRING
        }
      }
      attr {
        key: "value"
        value {
          tensor {
            dtype: DT_STRING
            tensor_shape {
              dim {
                size: 2
              }
            }
            string_val: "optimizer_multistep_accumulate_steps"
            string_val: "None"
          }
        }
      }
    }
    node {
      name: "Const_15"
      op: "Const"
      attr {
        key: "_output_shapes"
        value {
          list {
            shape {
              dim {
                size: 2
              }
            }
          }
        }
      }
      attr {
        key: "dtype"
        value {
          type: DT_STRING
        }
      }
      attr {
        key: "value"
        value {
          tensor {
            dtype: DT_STRING
            tensor_shape {
              dim {
                size: 2
              }
            }
            string_val: "weight_dtype"
            string_val: "float32"
          }
        }
      }
    }
    node {
      name: "Const_16"
      op: "Const"
      attr {
        key: "_output_shapes"
        value {
          list {
            shape {
              dim {
                size: 2
              }
            }
          }
        }
      }
      attr {
        key: "dtype"
        value {
          type: DT_STRING
        }
      }
      attr {
        key: "value"
        value {
          tensor {
            dtype: DT_STRING
            tensor_shape {
              dim {
                size: 2
              }
            }
            string_val: "num_hidden_layers"
            string_val: "2"
          }
        }
      }
    }
    node {
      name: "Const_17"
      op: "Const"
      attr {
        key: "_output_shapes"
        value {
          list {
            shape {
              dim {
                size: 2
              }
            }
          }
        }
      }
      attr {
        key: "dtype"
        value {
          type: DT_STRING
        }
      }
      attr {
        key: "value"
        value {
          tensor {
            dtype: DT_STRING
            tensor_shape {
              dim {
                size: 2
              }
            }
            string_val: "vocab_divisor"
            string_val: "1"
          }
        }
      }
    }
    node {
      name: "Const_18"
      op: "Const"
      attr {
        key: "_output_shapes"
        value {
          list {
            shape {
              dim {
                size: 2
              }
            }
          }
        }
      }
      attr {
        key: "dtype"
        value {
          type: DT_STRING
        }
      }
      attr {
        key: "value"
        value {
          tensor {
            dtype: DT_STRING
            tensor_shape {
              dim {
                size: 2
              }
            }
            string_val: "multiproblem_mixing_schedule"
            string_val: "constant"
          }
        }
      }
    }
    node {
      name: "Const_19"
      op: "Const"
      attr {
        key: "_output_shapes"
        value {
          list {
            shape {
              dim {
                size: 2
              }
            }
          }
        }
      }
      attr {
        key: "dtype"
        value {
          type: DT_STRING
        }
      }
      attr {
        key: "value"
        value {
          tensor {
            dtype: DT_STRING
            tensor_shape {
              dim {
                size: 2
              }
            }
            string_val: "optimizer_adafactor_beta1"
            string_val: "0.0"
          }
        }
      }
    }
    node {
      name: "Const_20"
      op: "Const"
      attr {
        key: "_output_shapes"
        value {
          list {
            shape {
              dim {
                size: 2
              }
            }
          }
        }
      }
      attr {
        key: "dtype"
        value {
          type: DT_STRING
        }
      }
      attr {
        key: "value"
        value {
          tensor {
            dtype: DT_STRING
            tensor_shape {
              dim {
                size: 2
              }
            }
            string_val: "pad_batch"
            string_val: "False"
          }
        }
      }
    }
    node {
      name: "Const_21"
      op: "Const"
      attr {
        key: "_output_shapes"
        value {
          list {
            shape {
              dim {
                size: 2
              }
            }
          }
        }
      }
      attr {
        key: "dtype"
        value {
          type: DT_STRING
        }
      }
      attr {
        key: "value"
        value {
          tensor {
            dtype: DT_STRING
            tensor_shape {
              dim {
                size: 2
              }
            }
            string_val: "symbol_modality_num_shards"
            string_val: "16"
          }
        }
      }
    }
    node {
      name: "Const_22"
      op: "Const"
      attr {
        key: "_output_shapes"
        value {
          list {
            shape {
              dim {
                size: 2
              }
            }
          }
        }
      }
      attr {
        key: "dtype"
        value {
          type: DT_STRING
        }
      }
      attr {
        key: "value"
        value {
          tensor {
            dtype: DT_STRING
            tensor_shape {
              dim {
                size: 2
              }
            }
            string_val: "grad_noise_scale"
            string_val: "0.0"
          }
        }
      }
    }
    node {
      name: "Const_23"
      op: "Const"
      attr {
        key: "_output_shapes"
        value {
          list {
            shape {
              dim {
                size: 2
              }
            }
          }
        }
      }
      attr {
        key: "dtype"
        value {
          type: DT_STRING
        }
      }
      attr {
        key: "value"
        value {
          tensor {
            dtype: DT_STRING
            tensor_shape {
              dim {
                size: 2
              }
            }
            string_val: "target_modality"
            string_val: "default"
          }
        }
      }
    }
    node {
      name: "Const_24"
      op: "Const"
      attr {
        key: "_output_shapes"
        value {
          list {
            shape {
              dim {
                size: 2
              }
            }
          }
        }
      }
      attr {
        key: "dtype"
        value {
          type: DT_STRING
        }
      }
      attr {
        key: "value"
        value {
          tensor {
            dtype: DT_STRING
            tensor_shape {
              dim {
                size: 2
              }
            }
            string_val: "max_length"
            string_val: "256"
          }
        }
      }
    }
    node {
      name: "Const_25"
      op: "Const"
      attr {
        key: "_output_shapes"
        value {
          list {
            shape {
              dim {
                size: 2
              }
            }
          }
        }
      }
      attr {
        key: "dtype"
        value {
          type: DT_STRING
        }
      }
      attr {
        key: "value"
        value {
          tensor {
            dtype: DT_STRING
            tensor_shape {
              dim {
                size: 2
              }
            }
            string_val: "norm_epsilon"
            string_val: "1e-06"
          }
        }
      }
    }
    node {
      name: "Const_26"
      op: "Const"
      attr {
        key: "_output_shapes"
        value {
          list {
            shape {
              dim {
                size: 2
              }
            }
          }
        }
      }
      attr {
        key: "dtype"
        value {
          type: DT_STRING
        }
      }
      attr {
        key: "value"
        value {
          tensor {
            dtype: DT_STRING
            tensor_shape {
              dim {
                size: 2
              }
            }
            string_val: "attention_dropout_broadcast_dims"
            string_val: ""
          }
        }
      }
    }
    node {
      name: "Const_27"
      op: "Const"
      attr {
        key: "_output_shapes"
        value {
          list {
            shape {
              dim {
                size: 2
              }
            }
          }
        }
      }
      attr {
        key: "dtype"
        value {
          type: DT_STRING
        }
      }
      attr {
        key: "value"
        value {
          tensor {
            dtype: DT_STRING
            tensor_shape {
              dim {
                size: 2
              }
            }
            string_val: "kernel_width"
            string_val: "1"
          }
        }
      }
    }
    node {
      name: "Const_28"
      op: "Const"
      attr {
        key: "_output_shapes"
        value {
          list {
            shape {
              dim {
                size: 2
              }
            }
          }
        }
      }
      attr {
        key: "dtype"
        value {
          type: DT_STRING
        }
      }
      attr {
        key: "value"
        value {
          tensor {
            dtype: DT_STRING
            tensor_shape {
              dim {
                size: 2
              }
            }
            string_val: "optimizer"
            string_val: "Adam"
          }
        }
      }
    }
    node {
      name: "Const_29"
      op: "Const"
      attr {
        key: "_output_shapes"
        value {
          list {
            shape {
              dim {
                size: 2
              }
            }
          }
        }
      }
      attr {
        key: "dtype"
        value {
          type: DT_STRING
        }
      }
      attr {
        key: "value"
        value {
          tensor {
            dtype: DT_STRING
            tensor_shape {
              dim {
                size: 2
              }
            }
            string_val: "no_data_parallelism"
            string_val: "True"
          }
        }
      }
    }
    node {
      name: "Const_30"
      op: "Const"
      attr {
        key: "_output_shapes"
        value {
          list {
            shape {
              dim {
                size: 2
              }
            }
          }
        }
      }
      attr {
        key: "dtype"
        value {
          type: DT_STRING
        }
      }
      attr {
        key: "value"
        value {
          tensor {
            dtype: DT_STRING
            tensor_shape {
              dim {
                size: 2
              }
            }
            string_val: "moe_overhead_train"
            string_val: "1.0"
          }
        }
      }
    }
    node {
      name: "Const_31"
      op: "Const"
      attr {
        key: "_output_shapes"
        value {
          list {
            shape {
              dim {
                size: 2
              }
            }
          }
        }
      }
      attr {
        key: "dtype"
        value {
          type: DT_STRING
        }
      }
      attr {
        key: "value"
        value {
          tensor {
            dtype: DT_STRING
            tensor_shape {
              dim {
                size: 2
              }
            }
            string_val: "sampling_temp"
            string_val: "1.0"
          }
        }
      }
    }
    node {
      name: "Const_32"
      op: "Const"
      attr {
        key: "_output_shapes"
        value {
          list {
            shape {
              dim {
                size: 2
              }
            }
          }
        }
      }
      attr {
        key: "dtype"
        value {
          type: DT_STRING
        }
      }
      attr {
        key: "value"
        value {
          tensor {
            dtype: DT_STRING
            tensor_shape {
              dim {
                size: 2
              }
            }
            string_val: "pos"
            string_val: "timing"
          }
        }
      }
    }
    node {
      name: "Const_33"
      op: "Const"
      attr {
        key: "_output_shapes"
        value {
          list {
            shape {
              dim {
                size: 2
              }
            }
          }
        }
      }
      attr {
        key: "dtype"
        value {
          type: DT_STRING
        }
      }
      attr {
        key: "value"
        value {
          tensor {
            dtype: DT_STRING
            tensor_shape {
              dim {
                size: 2
              }
            }
            string_val: "optimizer_adafactor_factored"
            string_val: "True"
          }
        }
      }
    }
    node {
      name: "Const_34"
      op: "Const"
      attr {
        key: "_output_shapes"
        value {
          list {
            shape {
              dim {
                size: 2
              }
            }
          }
        }
      }
      attr {
        key: "dtype"
        value {
          type: DT_STRING
        }
      }
      attr {
        key: "value"
        value {
          tensor {
            dtype: DT_STRING
            tensor_shape {
              dim {
                size: 2
              }
            }
            string_val: "multiproblem_schedule_max_examples"
            string_val: "10000000.0"
          }
        }
      }
    }
    node {
      name: "Const_35"
      op: "Const"
      attr {
        key: "_output_shapes"
        value {
          list {
            shape {
              dim {
                size: 2
              }
            }
          }
        }
      }
      attr {
        key: "dtype"
        value {
          type: DT_STRING
        }
      }
      attr {
        key: "value"
        value {
          tensor {
            dtype: DT_STRING
            tensor_shape {
              dim {
                size: 2
              }
            }
            string_val: "use_target_space_embedding"
            string_val: "True"
          }
        }
      }
    }
    node {
      name: "Const_36"
      op: "Const"
      attr {
        key: "_output_shapes"
        value {
          list {
            shape {
              dim {
                size: 2
              }
            }
          }
        }
      }
      attr {
        key: "dtype"
        value {
          type: DT_STRING
        }
      }
      attr {
        key: "value"
        value {
          tensor {
            dtype: DT_STRING
            tensor_shape {
              dim {
                size: 2
              }
            }
            string_val: "batch_size"
            string_val: "4096"
          }
        }
      }
    }
    node {
      name: "Const_37"
      op: "Const"
      attr {
        key: "_output_shapes"
        value {
          list {
            shape {
              dim {
                size: 2
              }
            }
          }
        }
      }
      attr {
        key: "dtype"
        value {
          type: DT_STRING
        }
      }
      attr {
        key: "value"
        value {
          tensor {
            dtype: DT_STRING
            tensor_shape {
              dim {
                size: 2
              }
            }
            string_val: "compress_steps"
            string_val: "0"
          }
        }
      }
    }
    node {
      name: "Const_38"
      op: "Const"
      attr {
        key: "_output_shapes"
        value {
          list {
            shape {
              dim {
                size: 2
              }
            }
          }
        }
      }
      attr {
        key: "dtype"
        value {
          type: DT_STRING
        }
      }
      attr {
        key: "value"
        value {
          tensor {
            dtype: DT_STRING
            tensor_shape {
              dim {
                size: 2
              }
            }
            string_val: "learning_rate_decay_rate"
            string_val: "1.0"
          }
        }
      }
    }
    node {
      name: "Const_39"
      op: "Const"
      attr {
        key: "_output_shapes"
        value {
          list {
            shape {
              dim {
                size: 2
              }
            }
          }
        }
      }
      attr {
        key: "dtype"
        value {
          type: DT_STRING
        }
      }
      attr {
        key: "value"
        value {
          tensor {
            dtype: DT_STRING
            tensor_shape {
              dim {
                size: 2
              }
            }
            string_val: "learning_rate_constant"
            string_val: "2.0"
          }
        }
      }
    }
    node {
      name: "Const_40"
      op: "Const"
      attr {
        key: "_output_shapes"
        value {
          list {
            shape {
              dim {
                size: 2
              }
            }
          }
        }
      }
      attr {
        key: "dtype"
        value {
          type: DT_STRING
        }
      }
      attr {
        key: "value"
        value {
          tensor {
            dtype: DT_STRING
            tensor_shape {
              dim {
                size: 2
              }
            }
            string_val: "optimizer_momentum_nesterov"
            string_val: "False"
          }
        }
      }
    }
    node {
      name: "Const_41"
      op: "Const"
      attr {
        key: "_output_shapes"
        value {
          list {
            shape {
              dim {
                size: 2
              }
            }
          }
        }
      }
      attr {
        key: "dtype"
        value {
          type: DT_STRING
        }
      }
      attr {
        key: "value"
        value {
          tensor {
            dtype: DT_STRING
            tensor_shape {
              dim {
                size: 2
              }
            }
            string_val: "layer_prepostprocess_dropout"
            string_val: "0.0"
          }
        }
      }
    }
    node {
      name: "Const_42"
      op: "Const"
      attr {
        key: "_output_shapes"
        value {
          list {
            shape {
              dim {
                size: 2
              }
            }
          }
        }
      }
      attr {
        key: "dtype"
        value {
          type: DT_STRING
        }
      }
      attr {
        key: "value"
        value {
          tensor {
            dtype: DT_STRING
            tensor_shape {
              dim {
                size: 2
              }
            }
            string_val: "relu_dropout_broadcast_dims"
            string_val: ""
          }
        }
      }
    }
    node {
      name: "Const_43"
      op: "Const"
      attr {
        key: "_output_shapes"
        value {
          list {
            shape {
              dim {
                size: 2
              }
            }
          }
        }
      }
      attr {
        key: "dtype"
        value {
          type: DT_STRING
        }
      }
      attr {
        key: "value"
        value {
          tensor {
            dtype: DT_STRING
            tensor_shape {
              dim {
                size: 2
              }
            }
            string_val: "attention_value_channels"
            string_val: "0"
          }
        }
      }
    }
    node {
      name: "Const_44"
      op: "Const"
      attr {
        key: "_output_shapes"
        value {
          list {
            shape {
              dim {
                size: 2
              }
            }
          }
        }
      }
      attr {
        key: "dtype"
        value {
          type: DT_STRING
        }
      }
      attr {
        key: "value"
        value {
          tensor {
            dtype: DT_STRING
            tensor_shape {
              dim {
                size: 2
              }
            }
            string_val: "summarize_grads"
            string_val: "False"
          }
        }
      }
    }
    node {
      name: "Const_45"
      op: "Const"
      attr {
        key: "_output_shapes"
        value {
          list {
            shape {
              dim {
                size: 2
              }
            }
          }
        }
      }
      attr {
        key: "dtype"
        value {
          type: DT_STRING
        }
      }
      attr {
        key: "value"
        value {
          tensor {
            dtype: DT_STRING
            tensor_shape {
              dim {
                size: 2
              }
            }
            string_val: "num_decoder_layers"
            string_val: "0"
          }
        }
      }
    }
    node {
      name: "Const_46"
      op: "Const"
      attr {
        key: "_output_shapes"
        value {
          list {
            shape {
              dim {
                size: 2
              }
            }
          }
        }
      }
      attr {
        key: "dtype"
        value {
          type: DT_STRING
        }
      }
      attr {
        key: "value"
        value {
          tensor {
            dtype: DT_STRING
            tensor_shape {
              dim {
                size: 2
              }
            }
            string_val: "optimizer_adafactor_decay_type"
            string_val: "pow"
          }
        }
      }
    }
    node {
      name: "Const_47"
      op: "Const"
      attr {
        key: "_output_shapes"
        value {
          list {
            shape {
              dim {
                size: 2
              }
            }
          }
        }
      }
      attr {
        key: "dtype"
        value {
          type: DT_STRING
        }
      }
      attr {
        key: "value"
        value {
          tensor {
            dtype: DT_STRING
            tensor_shape {
              dim {
                size: 2
              }
            }
            string_val: "initializer_gain"
            string_val: "1.0"
          }
        }
      }
    }
    node {
      name: "Const_48"
      op: "Const"
      attr {
        key: "_output_shapes"
        value {
          list {
            shape {
              dim {
                size: 2
              }
            }
          }
        }
      }
      attr {
        key: "dtype"
        value {
          type: DT_STRING
        }
      }
      attr {
        key: "value"
        value {
          tensor {
            dtype: DT_STRING
            tensor_shape {
              dim {
                size: 2
              }
            }
            string_val: "scheduled_sampling_warmup_steps"
            string_val: "50000"
          }
        }
      }
    }
    node {
      name: "Const_49"
      op: "Const"
      attr {
        key: "_output_shapes"
        value {
          list {
            shape {
              dim {
                size: 2
              }
            }
          }
        }
      }
      attr {
        key: "dtype"
        value {
          type: DT_STRING
        }
      }
      attr {
        key: "value"
        value {
          tensor {
            dtype: DT_STRING
            tensor_shape {
              dim {
                size: 2
              }
            }
            string_val: "clip_grad_norm"
            string_val: "0.0"
          }
        }
      }
    }
    node {
      name: "Const_50"
      op: "Const"
      attr {
        key: "_output_shapes"
        value {
          list {
            shape {
              dim {
                size: 2
              }
            }
          }
        }
      }
      attr {
        key: "dtype"
        value {
          type: DT_STRING
        }
      }
      attr {
        key: "value"
        value {
          tensor {
            dtype: DT_STRING
            tensor_shape {
              dim {
                size: 2
              }
            }
            string_val: "eval_drop_long_sequences"
            string_val: "False"
          }
        }
      }
    }
    node {
      name: "Const_51"
      op: "Const"
      attr {
        key: "_output_shapes"
        value {
          list {
            shape {
              dim {
                size: 2
              }
            }
          }
        }
      }
      attr {
        key: "dtype"
        value {
          type: DT_STRING
        }
      }
      attr {
        key: "value"
        value {
          tensor {
            dtype: DT_STRING
            tensor_shape {
              dim {
                size: 2
              }
            }
            string_val: "video_num_input_frames"
            string_val: "1"
          }
        }
      }
    }
    node {
      name: "Const_52"
      op: "Const"
      attr {
        key: "_output_shapes"
        value {
          list {
            shape {
              dim {
                size: 2
              }
            }
          }
        }
      }
      attr {
        key: "dtype"
        value {
          type: DT_STRING
        }
      }
      attr {
        key: "value"
        value {
          tensor {
            dtype: DT_STRING
            tensor_shape {
              dim {
                size: 2
              }
            }
            string_val: "video_num_target_frames"
            string_val: "1"
          }
        }
      }
    }
    node {
      name: "Const_53"
      op: "Const"
      attr {
        key: "_output_shapes"
        value {
          list {
            shape {
              dim {
                size: 2
              }
            }
          }
        }
      }
      attr {
        key: "dtype"
        value {
          type: DT_STRING
        }
      }
      attr {
        key: "value"
        value {
          tensor {
            dtype: DT_STRING
            tensor_shape {
              dim {
                size: 2
              }
            }
            string_val: "relu_dropout"
            string_val: "0.0"
          }
        }
      }
    }
    node {
      name: "Const_54"
      op: "Const"
      attr {
        key: "_output_shapes"
        value {
          list {
            shape {
              dim {
                size: 2
              }
            }
          }
        }
      }
      attr {
        key: "dtype"
        value {
          type: DT_STRING
        }
      }
      attr {
        key: "value"
        value {
          tensor {
            dtype: DT_STRING
            tensor_shape {
              dim {
                size: 2
              }
            }
            string_val: "weight_noise"
            string_val: "0.0"
          }
        }
      }
    }
    node {
      name: "Const_55"
      op: "Const"
      attr {
        key: "_output_shapes"
        value {
          list {
            shape {
              dim {
                size: 2
              }
            }
          }
        }
      }
      attr {
        key: "dtype"
        value {
          type: DT_STRING
        }
      }
      attr {
        key: "value"
        value {
          tensor {
            dtype: DT_STRING
            tensor_shape {
              dim {
                size: 2
              }
            }
            string_val: "layer_preprocess_sequence"
            string_val: "n"
          }
        }
      }
    }
    node {
      name: "Const_56"
      op: "Const"
      attr {
        key: "_output_shapes"
        value {
          list {
            shape {
              dim {
                size: 2
              }
            }
          }
        }
      }
      attr {
        key: "dtype"
        value {
          type: DT_STRING
        }
      }
      attr {
        key: "value"
        value {
          tensor {
            dtype: DT_STRING
            tensor_shape {
              dim {
                size: 2
              }
            }
            string_val: "prepend_mode"
            string_val: "none"
          }
        }
      }
    }
    node {
      name: "Const_57"
      op: "Const"
      attr {
        key: "_output_shapes"
        value {
          list {
            shape {
              dim {
                size: 2
              }
            }
          }
        }
      }
      attr {
        key: "dtype"
        value {
          type: DT_STRING
        }
      }
      attr {
        key: "value"
        value {
          tensor {
            dtype: DT_STRING
            tensor_shape {
              dim {
                size: 2
              }
            }
            string_val: "sampling_method"
            string_val: "argmax"
          }
        }
      }
    }
    node {
      name: "Const_58"
      op: "Const"
      attr {
        key: "_output_shapes"
        value {
          list {
            shape {
              dim {
                size: 2
              }
            }
          }
        }
      }
      attr {
        key: "dtype"
        value {
          type: DT_STRING
        }
      }
      attr {
        key: "value"
        value {
          tensor {
            dtype: DT_STRING
            tensor_shape {
              dim {
                size: 2
              }
            }
            string_val: "summarize_vars"
            string_val: "False"
          }
        }
      }
    }
    node {
      name: "Const_59"
      op: "Const"
      attr {
        key: "_output_shapes"
        value {
          list {
            shape {
              dim {
                size: 2
              }
            }
          }
        }
      }
      attr {
        key: "dtype"
        value {
          type: DT_STRING
        }
      }
      attr {
        key: "value"
        value {
          tensor {
            dtype: DT_STRING
            tensor_shape {
              dim {
                size: 2
              }
            }
            string_val: "self_attention_type"
            string_val: "dot_product"
          }
        }
      }
    }
    node {
      name: "Const_60"
      op: "Const"
      attr {
        key: "_output_shapes"
        value {
          list {
            shape {
              dim {
                size: 2
              }
            }
          }
        }
      }
      attr {
        key: "dtype"
        value {
          type: DT_STRING
        }
      }
      attr {
        key: "value"
        value {
          tensor {
            dtype: DT_STRING
            tensor_shape {
              dim {
                size: 2
              }
            }
            string_val: "ffn_layer"
            string_val: "dense_relu_dense"
          }
        }
      }
    }
    node {
      name: "Const_61"
      op: "Const"
      attr {
        key: "_output_shapes"
        value {
          list {
            shape {
              dim {
                size: 2
              }
            }
          }
        }
      }
      attr {
        key: "dtype"
        value {
          type: DT_STRING
        }
      }
      attr {
        key: "value"
        value {
          tensor {
            dtype: DT_STRING
            tensor_shape {
              dim {
                size: 2
              }
            }
            string_val: "max_input_seq_length"
            string_val: "0"
          }
        }
      }
    }
    node {
      name: "Const_62"
      op: "Const"
      attr {
        key: "_output_shapes"
        value {
          list {
            shape {
              dim {
                size: 2
              }
            }
          }
        }
      }
      attr {
        key: "dtype"
        value {
          type: DT_STRING
        }
      }
      attr {
        key: "value"
        value {
          tensor {
            dtype: DT_STRING
            tensor_shape {
              dim {
                size: 2
              }
            }
            string_val: "moe_k"
            string_val: "2"
          }
        }
      }
    }
    node {
      name: "Const_63"
      op: "Const"
      attr {
        key: "_output_shapes"
        value {
          list {
            shape {
              dim {
                size: 2
              }
            }
          }
        }
      }
      attr {
        key: "dtype"
        value {
          type: DT_STRING
        }
      }
      attr {
        key: "value"
        value {
          tensor {
            dtype: DT_STRING
            tensor_shape {
              dim {
                size: 2
              }
            }
            string_val: "tpu_enable_host_call"
            string_val: "False"
          }
        }
      }
    }
    node {
      name: "Const_64"
      op: "Const"
      attr {
        key: "_output_shapes"
        value {
          list {
            shape {
              dim {
                size: 2
              }
            }
          }
        }
      }
      attr {
        key: "dtype"
        value {
          type: DT_STRING
        }
      }
      attr {
        key: "value"
        value {
          tensor {
            dtype: DT_STRING
            tensor_shape {
              dim {
                size: 2
              }
            }
            string_val: "optimizer_adafactor_beta2"
            string_val: "0.999"
          }
        }
      }
    }
    node {
      name: "Const_65"
      op: "Const"
      attr {
        key: "_output_shapes"
        value {
          list {
            shape {
              dim {
                size: 2
              }
            }
          }
        }
      }
      attr {
        key: "dtype"
        value {
          type: DT_STRING
        }
      }
      attr {
        key: "value"
        value {
          tensor {
            dtype: DT_STRING
            tensor_shape {
              dim {
                size: 2
              }
            }
            string_val: "input_modalities"
            string_val: "default"
          }
        }
      }
    }
    node {
      name: "Const_66"
      op: "Const"
      attr {
        key: "_output_shapes"
        value {
          list {
            shape {
              dim {
                size: 2
              }
            }
          }
        }
      }
      attr {
        key: "dtype"
        value {
          type: DT_STRING
        }
      }
      attr {
        key: "value"
        value {
          tensor {
            dtype: DT_STRING
            tensor_shape {
              dim {
                size: 2
              }
            }
            string_val: "shared_embedding"
            string_val: "False"
          }
        }
      }
    }
    node {
      name: "Const_67"
      op: "Const"
      attr {
        key: "_output_shapes"
        value {
          list {
            shape {
              dim {
                size: 2
              }
            }
          }
        }
      }
      attr {
        key: "dtype"
        value {
          type: DT_STRING
        }
      }
      attr {
        key: "value"
        value {
          tensor {
            dtype: DT_STRING
            tensor_shape {
              dim {
                size: 2
              }
            }
            string_val: "shared_embedding_and_softmax_weights"
            string_val: "True"
          }
        }
      }
    }
    node {
      name: "Const_68"
      op: "Const"
      attr {
        key: "_output_shapes"
        value {
          list {
            shape {
              dim {
                size: 2
              }
            }
          }
        }
      }
      attr {
        key: "dtype"
        value {
          type: DT_STRING
        }
      }
      attr {
        key: "value"
        value {
          tensor {
            dtype: DT_STRING
            tensor_shape {
              dim {
                size: 2
              }
            }
            string_val: "pretrained_model_dir"
            string_val: ""
          }
        }
      }
    }
    node {
      name: "Const_69"
      op: "Const"
      attr {
        key: "_output_shapes"
        value {
          list {
            shape {
              dim {
                size: 2
              }
            }
          }
        }
      }
      attr {
        key: "dtype"
        value {
          type: DT_STRING
        }
      }
      attr {
        key: "value"
        value {
          tensor {
            dtype: DT_STRING
            tensor_shape {
              dim {
                size: 2
              }
            }
            string_val: "conv_first_kernel"
            string_val: "3"
          }
        }
      }
    }
    node {
      name: "Const_70"
      op: "Const"
      attr {
        key: "_output_shapes"
        value {
          list {
            shape {
              dim {
                size: 2
              }
            }
          }
        }
      }
      attr {
        key: "dtype"
        value {
          type: DT_STRING
        }
      }
      attr {
        key: "value"
        value {
          tensor {
            dtype: DT_STRING
            tensor_shape {
              dim {
                size: 2
              }
            }
            string_val: "optimizer_momentum_momentum"
            string_val: "0.9"
          }
        }
      }
    }
    node {
      name: "Const_71"
      op: "Const"
      attr {
        key: "_output_shapes"
        value {
          list {
            shape {
              dim {
                size: 2
              }
            }
          }
        }
      }
      attr {
        key: "dtype"
        value {
          type: DT_STRING
        }
      }
      attr {
        key: "value"
        value {
          tensor {
            dtype: DT_STRING
            tensor_shape {
              dim {
                size: 2
              }
            }
            string_val: "data_dir"
            string_val: "/home/jlewi/git_kubeflow-examples/code_search/src/code_search/t2t/test_data"
          }
        }
      }
    }
    node {
      name: "Const_72"
      op: "Const"
      attr {
        key: "_output_shapes"
        value {
          list {
            shape {
              dim {
                size: 2
              }
            }
          }
        }
      }
      attr {
        key: "dtype"
        value {
          type: DT_STRING
        }
      }
      attr {
        key: "value"
        value {
          tensor {
            dtype: DT_STRING
            tensor_shape {
              dim {
                size: 2
              }
            }
            string_val: "max_relative_position"
            string_val: "0"
          }
        }
      }
    }
    node {
      name: "Const_73"
      op: "Const"
      attr {
        key: "_output_shapes"
        value {
          list {
            shape {
              dim {
                size: 2
              }
            }
          }
        }
      }
      attr {
        key: "dtype"
        value {
          type: DT_STRING
        }
      }
      attr {
        key: "value"
        value {
          tensor {
            dtype: DT_STRING
            tensor_shape {
              dim {
                size: 2
              }
            }
            string_val: "learning_rate_decay_steps"
            string_val: "5000"
          }
        }
      }
    }
    node {
      name: "Const_74"
      op: "Const"
      attr {
        key: "_output_shapes"
        value {
          list {
            shape {
              dim {
                size: 2
              }
            }
          }
        }
      }
      attr {
        key: "dtype"
        value {
          type: DT_STRING
        }
      }
      attr {
        key: "value"
        value {
          tensor {
            dtype: DT_STRING
            tensor_shape {
              dim {
                size: 2
              }
            }
            string_val: "use_pad_remover"
            string_val: "True"
          }
        }
      }
    }
    node {
      name: "Const_75"
      op: "Const"
      attr {
        key: "_output_shapes"
        value {
          list {
            shape {
              dim {
                size: 2
              }
            }
          }
        }
      }
      attr {
        key: "dtype"
        value {
          type: DT_STRING
        }
      }
      attr {
        key: "value"
        value {
          tensor {
            dtype: DT_STRING
            tensor_shape {
              dim {
                size: 2
              }
            }
            string_val: "attention_dropout"
            string_val: "0.0"
          }
        }
      }
    }
    node {
      name: "Const_76"
      op: "Const"
      attr {
        key: "_output_shapes"
        value {
          list {
            shape {
              dim {
                size: 2
              }
            }
          }
        }
      }
      attr {
        key: "dtype"
        value {
          type: DT_STRING
        }
      }
      attr {
        key: "value"
        value {
          tensor {
            dtype: DT_STRING
            tensor_shape {
              dim {
                size: 2
              }
            }
            string_val: "multiproblem_label_weight"
            string_val: "0.5"
          }
        }
      }
    }
    node {
      name: "Const_77"
      op: "Const"
      attr {
        key: "_output_shapes"
        value {
          list {
            shape {
              dim {
                size: 2
              }
            }
          }
        }
      }
      attr {
        key: "dtype"
        value {
          type: DT_STRING
        }
      }
      attr {
        key: "value"
        value {
          tensor {
            dtype: DT_STRING
            tensor_shape {
              dim {
                size: 2
              }
            }
            string_val: "weight_decay"
            string_val: "0.0"
          }
        }
      }
    }
    node {
      name: "Const_78"
      op: "Const"
      attr {
        key: "_output_shapes"
        value {
          list {
            shape {
              dim {
                size: 2
              }
            }
          }
        }
      }
      attr {
        key: "dtype"
        value {
          type: DT_STRING
        }
      }
      attr {
        key: "value"
        value {
          tensor {
            dtype: DT_STRING
            tensor_shape {
              dim {
                size: 2
              }
            }
            string_val: "initializer"
            string_val: "uniform_unit_scaling"
          }
        }
      }
    }
    node {
      name: "Const_79"
      op: "Const"
      attr {
        key: "_output_shapes"
        value {
          list {
            shape {
              dim {
                size: 2
              }
            }
          }
        }
      }
      attr {
        key: "dtype"
        value {
          type: DT_STRING
        }
      }
      attr {
        key: "value"
        value {
          tensor {
            dtype: DT_STRING
            tensor_shape {
              dim {
                size: 2
              }
            }
            string_val: "optimizer_adam_beta2"
            string_val: "0.997"
          }
        }
      }
    }
    node {
      name: "Const_80"
      op: "Const"
      attr {
        key: "_output_shapes"
        value {
          list {
            shape {
              dim {
                size: 2
              }
            }
          }
        }
      }
      attr {
        key: "dtype"
        value {
          type: DT_STRING
        }
      }
      attr {
        key: "value"
        value {
          tensor {
            dtype: DT_STRING
            tensor_shape {
              dim {
                size: 2
              }
            }
            string_val: "max_target_seq_length"
            string_val: "0"
          }
        }
      }
    }
    node {
      name: "Const_81"
      op: "Const"
      attr {
        key: "_output_shapes"
        value {
          list {
            shape {
              dim {
                size: 2
              }
            }
          }
        }
      }
      attr {
        key: "dtype"
        value {
          type: DT_STRING
        }
      }
      attr {
        key: "value"
        value {
          tensor {
            dtype: DT_STRING
            tensor_shape {
              dim {
                size: 2
              }
            }
            string_val: "eval_run_autoregressive"
            string_val: "False"
          }
        }
      }
    }
    node {
      name: "Const_82"
      op: "Const"
      attr {
        key: "_output_shapes"
        value {
          list {
            shape {
              dim {
                size: 2
              }
            }
          }
        }
      }
      attr {
        key: "dtype"
        value {
          type: DT_STRING
        }
      }
      attr {
        key: "value"
        value {
          tensor {
            dtype: DT_STRING
            tensor_shape {
              dim {
                size: 2
              }
            }
            string_val: "symbol_modality_skip_top"
            string_val: "False"
          }
        }
      }
    }
    node {
      name: "Const_83"
      op: "Const"
      attr {
        key: "_output_shapes"
        value {
          list {
            shape {
              dim {
                size: 2
              }
            }
          }
        }
      }
      attr {
        key: "dtype"
        value {
          type: DT_STRING
        }
      }
      attr {
        key: "value"
        value {
          tensor {
            dtype: DT_STRING
            tensor_shape {
              dim {
                size: 2
              }
            }
            string_val: "moe_overhead_eval"
            string_val: "2.0"
          }
        }
      }
    }
    node {
      name: "Const_84"
      op: "Const"
      attr {
        key: "_output_shapes"
        value {
          list {
            shape {
              dim {
                size: 2
              }
            }
          }
        }
      }
      attr {
        key: "dtype"
        value {
          type: DT_STRING
        }
      }
      attr {
        key: "value"
        value {
          tensor {
            dtype: DT_STRING
            tensor_shape {
              dim {
                size: 2
              }
            }
            string_val: "min_length_bucket"
            string_val: "8"
          }
        }
      }
    }
    node {
      name: "Const_85"
      op: "Const"
      attr {
        key: "_output_shapes"
        value {
          list {
            shape {
              dim {
                size: 2
              }
            }
          }
        }
      }
      attr {
        key: "dtype"
        value {
          type: DT_STRING
        }
      }
      attr {
        key: "value"
        value {
          tensor {
            dtype: DT_STRING
            tensor_shape {
              dim {
                size: 2
              }
            }
            string_val: "causal_decoder_self_attention"
            string_val: "True"
          }
        }
      }
    }
    node {
      name: "Const_86"
      op: "Const"
      attr {
        key: "_output_shapes"
        value {
          list {
            shape {
              dim {
                size: 2
              }
            }
          }
        }
      }
      attr {
        key: "dtype"
        value {
          type: DT_STRING
        }
      }
      attr {
        key: "value"
        value {
          tensor {
            dtype: DT_STRING
            tensor_shape {
              dim {
                size: 2
              }
            }
            string_val: "daisy_chain_variables"
            string_val: "True"
          }
        }
      }
    }
    node {
      name: "Const_87"
      op: "Const"
      attr {
        key: "_output_shapes"
        value {
          list {
            shape {
              dim {
                size: 2
              }
            }
          }
        }
      }
      attr {
        key: "dtype"
        value {
          type: DT_STRING
        }
      }
      attr {
        key: "value"
        value {
          tensor {
            dtype: DT_STRING
            tensor_shape {
              dim {
                size: 2
              }
            }
            string_val: "scheduled_sampling_prob"
            string_val: "0.0"
          }
        }
      }
    }
    node {
      name: "Const_88"
      op: "Const"
      attr {
        key: "_output_shapes"
        value {
          list {
            shape {
              dim {
                size: 2
              }
            }
          }
        }
      }
      attr {
        key: "dtype"
        value {
          type: DT_STRING
        }
      }
      attr {
        key: "value"
        value {
          tensor {
            dtype: DT_STRING
            tensor_shape {
              dim {
                size: 2
              }
            }
            string_val: "factored_logits"
            string_val: "False"
          }
        }
      }
    }
    node {
      name: "Const_89"
      op: "Const"
      attr {
        key: "_output_shapes"
        value {
          list {
            shape {
              dim {
                size: 2
              }
            }
          }
        }
      }
      attr {
        key: "dtype"
        value {
          type: DT_STRING
        }
      }
      attr {
        key: "value"
        value {
          tensor {
            dtype: DT_STRING
            tensor_shape {
              dim {
                size: 2
              }
            }
            string_val: "label_smoothing"
            string_val: "0.0"
          }
        }
      }
    }
    node {
      name: "Const_90"
      op: "Const"
      attr {
        key: "_output_shapes"
        value {
          list {
            shape {
              dim {
                size: 2
              }
            }
          }
        }
      }
      attr {
        key: "dtype"
        value {
          type: DT_STRING
        }
      }
      attr {
        key: "value"
        value {
          tensor {
            dtype: DT_STRING
            tensor_shape {
              dim {
                size: 2
              }
            }
            string_val: "multiproblem_schedule_threshold"
            string_val: "0.5"
          }
        }
      }
    }
    node {
      name: "Const_91"
      op: "Const"
      attr {
        key: "_output_shapes"
        value {
          list {
            shape {
              dim {
                size: 2
              }
            }
          }
        }
      }
      attr {
        key: "dtype"
        value {
          type: DT_STRING
        }
      }
      attr {
        key: "value"
        value {
          tensor {
            dtype: DT_STRING
            tensor_shape {
              dim {
                size: 2
              }
            }
            string_val: "moe_hidden_sizes"
            string_val: "2048"
          }
        }
      }
    }
    node {
      name: "Const_92"
      op: "Const"
      attr {
        key: "_output_shapes"
        value {
          list {
            shape {
              dim {
                size: 2
              }
            }
          }
        }
      }
      attr {
        key: "dtype"
        value {
          type: DT_STRING
        }
      }
      attr {
        key: "value"
        value {
          tensor {
            dtype: DT_STRING
            tensor_shape {
              dim {
                size: 2
              }
            }
            string_val: "mode"
            string_val: "infer"
          }
        }
      }
    }
    node {
      name: "Const_93"
      op: "Const"
      attr {
        key: "_output_shapes"
        value {
          list {
            shape {
              dim {
                size: 2
              }
            }
          }
        }
      }
      attr {
        key: "dtype"
        value {
          type: DT_STRING
        }
      }
      attr {
        key: "value"
        value {
          tensor {
            dtype: DT_STRING
            tensor_shape {
              dim {
                size: 2
              }
            }
            string_val: "learning_rate_decay_scheme"
            string_val: "noam"
          }
        }
      }
    }
    node {
      name: "Const_94"
      op: "Const"
      attr {
        key: "_output_shapes"
        value {
          list {
            shape {
              dim {
                size: 2
              }
            }
          }
        }
      }
      attr {
        key: "dtype"
        value {
          type: DT_STRING
        }
      }
      attr {
        key: "value"
        value {
          tensor {
            dtype: DT_STRING
            tensor_shape {
              dim {
                size: 2
              }
            }
            string_val: "multiproblem_class_loss_multiplier"
            string_val: "0.0"
          }
        }
      }
    }
    node {
      name: "Const_95"
      op: "Const"
      attr {
        key: "_output_shapes"
        value {
          list {
            shape {
              dim {
                size: 2
              }
            }
          }
        }
      }
      attr {
        key: "dtype"
        value {
          type: DT_STRING
        }
      }
      attr {
        key: "value"
        value {
          tensor {
            dtype: DT_STRING
            tensor_shape {
              dim {
                size: 2
              }
            }
            string_val: "norm_type"
            string_val: "layer"
          }
        }
      }
    }
    node {
      name: "Const_96"
      op: "Const"
      attr {
        key: "_output_shapes"
        value {
          list {
            shape {
              dim {
                size: 2
              }
            }
          }
        }
      }
      attr {
        key: "dtype"
        value {
          type: DT_STRING
        }
      }
      attr {
        key: "value"
        value {
          tensor {
            dtype: DT_STRING
            tensor_shape {
              dim {
                size: 2
              }
            }
            string_val: "attention_key_channels"
            string_val: "0"
          }
        }
      }
    }
    node {
      name: "Const_97"
      op: "Const"
      attr {
        key: "_output_shapes"
        value {
          list {
            shape {
              dim {
                size: 2
              }
            }
          }
        }
      }
      attr {
        key: "dtype"
        value {
          type: DT_STRING
        }
      }
      attr {
        key: "value"
        value {
          tensor {
            dtype: DT_STRING
            tensor_shape {
              dim {
                size: 2
              }
            }
            string_val: "optimizer_adam_beta1"
            string_val: "0.9"
          }
        }
      }
    }
    node {
      name: "Const_98"
      op: "Const"
      attr {
        key: "_output_shapes"
        value {
          list {
            shape {
              dim {
                size: 2
              }
            }
          }
        }
      }
      attr {
        key: "dtype"
        value {
          type: DT_STRING
        }
      }
      attr {
        key: "value"
        value {
          tensor {
            dtype: DT_STRING
            tensor_shape {
              dim {
                size: 2
              }
            }
            string_val: "length_bucket_step"
            string_val: "1.1"
          }
        }
      }
    }
    node {
      name: "Const_99"
      op: "Const"
      attr {
        key: "_output_shapes"
        value {
          list {
            shape {
              dim {
                size: 2
              }
            }
          }
        }
      }
      attr {
        key: "dtype"
        value {
          type: DT_STRING
        }
      }
      attr {
        key: "value"
        value {
          tensor {
            dtype: DT_STRING
            tensor_shape {
              dim {
                size: 2
              }
            }
            string_val: "min_length"
            string_val: "0"
          }
        }
      }
    }
    node {
      name: "Const_100"
      op: "Const"
      attr {
        key: "_output_shapes"
        value {
          list {
            shape {
              dim {
                size: 2
              }
            }
          }
        }
      }
      attr {
        key: "dtype"
        value {
          type: DT_STRING
        }
      }
      attr {
        key: "value"
        value {
          tensor {
            dtype: DT_STRING
            tensor_shape {
              dim {
                size: 2
              }
            }
            string_val: "kernel_height"
            string_val: "3"
          }
        }
      }
    }
    node {
      name: "Const_101"
      op: "Const"
      attr {
        key: "_output_shapes"
        value {
          list {
            shape {
              dim {
                size: 2
              }
            }
          }
        }
      }
      attr {
        key: "dtype"
        value {
          type: DT_STRING
        }
      }
      attr {
        key: "value"
        value {
          tensor {
            dtype: DT_STRING
            tensor_shape {
              dim {
                size: 2
              }
            }
            string_val: "multiproblem_reweight_label_loss"
            string_val: "False"
          }
        }
      }
    }
    node {
      name: "Const_102"
      op: "Const"
      attr {
        key: "_output_shapes"
        value {
          list {
            shape {
              dim {
                size: 2
              }
            }
          }
        }
      }
      attr {
        key: "dtype"
        value {
          type: DT_STRING
        }
      }
      attr {
        key: "value"
        value {
          tensor {
            dtype: DT_STRING
            tensor_shape {
              dim {
                size: 2
              }
            }
            string_val: "moe_num_experts"
            string_val: "16"
          }
        }
      }
    }
    node {
      name: "Const_103"
      op: "Const"
      attr {
        key: "_output_shapes"
        value {
          list {
            shape {
              dim {
                size: 2
              }
            }
          }
        }
      }
      attr {
        key: "dtype"
        value {
          type: DT_STRING
        }
      }
      attr {
        key: "value"
        value {
          tensor {
            dtype: DT_STRING
            tensor_shape {
              dim {
                size: 2
              }
            }
            string_val: "nbr_decoder_problems"
            string_val: "1"
          }
        }
      }
    }
    node {
      name: "Const_104"
      op: "Const"
      attr {
        key: "_output_shapes"
        value {
          list {
            shape {
              dim {
                size: 2
              }
            }
          }
        }
      }
      attr {
        key: "dtype"
        value {
          type: DT_STRING
        }
      }
      attr {
        key: "value"
        value {
          tensor {
            dtype: DT_STRING
            tensor_shape {
              dim {
                size: 2
              }
            }
            string_val: "proximity_bias"
            string_val: "False"
          }
        }
      }
    }
    node {
      name: "Const_105"
      op: "Const"
      attr {
        key: "_output_shapes"
        value {
          list {
            shape {
              dim {
                size: 2
              }
            }
          }
        }
      }
      attr {
        key: "dtype"
        value {
          type: DT_STRING
        }
      }
      attr {
        key: "value"
        value {
          tensor {
            dtype: DT_STRING
            tensor_shape {
              dim {
                size: 2
              }
            }
            string_val: "force_full_predict"
            string_val: "False"
          }
        }
      }
    }
    node {
      name: "Const_106"
      op: "Const"
      attr {
        key: "_output_shapes"
        value {
          list {
            shape {
              dim {
                size: 2
              }
            }
          }
        }
      }
      attr {
        key: "dtype"
        value {
          type: DT_STRING
        }
      }
      attr {
        key: "value"
        value {
          tensor {
            dtype: DT_STRING
            tensor_shape {
              dim {
                size: 2
              }
            }
            string_val: "symbol_dropout"
            string_val: "0.0"
          }
        }
      }
    }
    node {
      name: "Const_107"
      op: "Const"
      attr {
        key: "_output_shapes"
        value {
          list {
            shape {
              dim {
                size: 2
              }
            }
          }
        }
      }
      attr {
        key: "dtype"
        value {
          type: DT_STRING
        }
      }
      attr {
        key: "value"
        value {
          tensor {
            dtype: DT_STRING
            tensor_shape {
              dim {
                size: 2
              }
            }
            string_val: "split_to_length"
            string_val: "0"
          }
        }
      }
    }
    node {
      name: "Const_108"
      op: "Const"
      attr {
        key: "_output_shapes"
        value {
          list {
            shape {
              dim {
                size: 2
              }
            }
          }
        }
      }
      attr {
        key: "dtype"
        value {
          type: DT_STRING
        }
      }
      attr {
        key: "value"
        value {
          tensor {
            dtype: DT_STRING
            tensor_shape {
              dim {
                size: 2
              }
            }
            string_val: "learning_rate_minimum"
            string_val: "None"
          }
        }
      }
    }
    node {
      name: "Const_109"
      op: "Const"
      attr {
        key: "_output_shapes"
        value {
          list {
            shape {
              dim {
                size: 2
              }
            }
          }
        }
      }
      attr {
        key: "dtype"
        value {
          type: DT_STRING
        }
      }
      attr {
        key: "value"
        value {
          tensor {
            dtype: DT_STRING
            tensor_shape {
              dim {
                size: 2
              }
            }
            string_val: "use_fixed_batch_size"
            string_val: "False"
          }
        }
      }
    }
    node {
      name: "Const_110"
      op: "Const"
      attr {
        key: "_output_shapes"
        value {
          list {
            shape {
              dim {
                size: 2
              }
            }
          }
        }
      }
      attr {
        key: "dtype"
        value {
          type: DT_STRING
        }
      }
      attr {
        key: "value"
        value {
          tensor {
            dtype: DT_STRING
            tensor_shape {
              dim {
                size: 2
              }
            }
            string_val: "parameter_attention_value_channels"
            string_val: "0"
          }
        }
      }
    }
    node {
      name: "Const_111"
      op: "Const"
      attr {
        key: "_output_shapes"
        value {
          list {
            shape {
              dim {
                size: 2
              }
            }
          }
        }
      }
      attr {
        key: "dtype"
        value {
          type: DT_STRING
        }
      }
      attr {
        key: "value"
        value {
          tensor {
            dtype: DT_STRING
            tensor_shape {
              dim {
                size: 2
              }
            }
            string_val: "activation_dtype"
            string_val: "float32"
          }
        }
      }
    }
    node {
      name: "Const_112"
      op: "Const"
      attr {
        key: "_output_shapes"
        value {
          list {
            shape {
              dim {
                size: 2
              }
            }
          }
        }
      }
      attr {
        key: "dtype"
        value {
          type: DT_STRING
        }
      }
      attr {
        key: "value"
        value {
          tensor {
            dtype: DT_STRING
            tensor_shape {
              dim {
                size: 2
              }
            }
            string_val: "num_heads"
            string_val: "4"
          }
        }
      }
    }
    node {
      name: "Const_113"
      op: "Const"
      attr {
        key: "_output_shapes"
        value {
          list {
            shape {
              dim {
                size: 2
              }
            }
          }
        }
      }
      attr {
        key: "dtype"
        value {
          type: DT_STRING
        }
      }
      attr {
        key: "value"
        value {
          tensor {
            dtype: DT_STRING
            tensor_shape {
              dim {
                size: 2
              }
            }
            string_val: "filter_size"
            string_val: "512"
          }
        }
      }
    }
    node {
      name: "Const_114"
      op: "Const"
      attr {
        key: "_output_shapes"
        value {
          list {
            shape {
              dim {
                size: 2
              }
            }
          }
        }
      }
      attr {
        key: "dtype"
        value {
          type: DT_STRING
        }
      }
      attr {
        key: "value"
        value {
          tensor {
            dtype: DT_STRING
            tensor_shape {
              dim {
                size: 2
              }
            }
            string_val: "optimizer_adafactor_multiply_by_parameter_scale"
            string_val: "True"
          }
        }
      }
    }
    node {
      name: "Const_115"
      op: "Const"
      attr {
        key: "_output_shapes"
        value {
          list {
            shape {
              dim {
                size: 2
              }
            }
          }
        }
      }
      attr {
        key: "dtype"
        value {
          type: DT_STRING
        }
      }
      attr {
        key: "value"
        value {
          tensor {
            dtype: DT_STRING
            tensor_shape {
              dim {
                size: 2
              }
            }
            string_val: "add_relative_to_values"
            string_val: "False"
          }
        }
      }
    }
    node {
      name: "Const_116"
      op: "Const"
      attr {
        key: "_output_shapes"
        value {
          list {
            shape {
              dim {
                size: 2
              }
            }
          }
        }
      }
      attr {
        key: "dtype"
        value {
          type: DT_STRING
        }
      }
      attr {
        key: "value"
        value {
          tensor {
            dtype: DT_STRING
            tensor_shape {
              dim {
                size: 2
              }
            }
            string_val: "optimizer_adam_epsilon"
            string_val: "1e-09"
          }
        }
      }
    }
    node {
      name: "Const_117"
      op: "Const"
      attr {
        key: "_output_shapes"
        value {
          list {
            shape {
              dim {
                size: 2
              }
            }
          }
        }
      }
      attr {
        key: "dtype"
        value {
          type: DT_STRING
        }
      }
      attr {
        key: "value"
        value {
          tensor {
            dtype: DT_STRING
            tensor_shape {
              dim {
                size: 2
              }
            }
            string_val: "scheduled_sampling_gold_mixin_prob"
            string_val: "0.5"
          }
        }
      }
    }
    node {
      name: "Const_118"
      op: "Const"
      attr {
        key: "_output_shapes"
        value {
          list {
            shape {
              dim {
                size: 2
              }
            }
          }
        }
      }
      attr {
        key: "dtype"
        value {
          type: DT_STRING
        }
      }
      attr {
        key: "value"
        value {
          tensor {
            dtype: DT_STRING
            tensor_shape {
              dim {
                size: 2
              }
            }
            string_val: "hidden_size"
            string_val: "128"
          }
        }
      }
    }
    node {
      name: "Const_119"
      op: "Const"
      attr {
        key: "_output_shapes"
        value {
          list {
            shape {
              dim {
                size: 2
              }
            }
          }
        }
      }
      attr {
        key: "dtype"
        value {
          type: DT_STRING
        }
      }
      attr {
        key: "value"
        value {
          tensor {
            dtype: DT_STRING
            tensor_shape {
              dim {
                size: 2
              }
            }
            string_val: "layer_prepostprocess_dropout_broadcast_dims"
            string_val: ""
          }
        }
      }
    }
    node {
      name: "Const_120"
      op: "Const"
      attr {
        key: "_output_shapes"
        value {
          list {
            shape {
              dim {
                size: 2
              }
            }
          }
        }
      }
      attr {
        key: "dtype"
        value {
          type: DT_STRING
        }
      }
      attr {
        key: "value"
        value {
          tensor {
            dtype: DT_STRING
            tensor_shape {
              dim {
                size: 2
              }
            }
            string_val: "learning_rate_cosine_cycle_steps"
            string_val: "250000"
          }
        }
      }
    }
    node {
      name: "Const_121"
      op: "Const"
      attr {
        key: "_output_shapes"
        value {
          list {
            shape {
              dim {
                size: 2
              }
            }
          }
        }
      }
      attr {
        key: "dtype"
        value {
          type: DT_STRING
        }
      }
      attr {
        key: "value"
        value {
          tensor {
            dtype: DT_STRING
            tensor_shape {
              dim {
                size: 2
              }
            }
            string_val: "learning_rate_schedule"
            string_val: "constant*linear_warmup*rsqrt_decay*rsqrt_hidden_size"
          }
        }
      }
    }
    node {
      name: "Const_122"
      op: "Const"
      attr {
        key: "_output_shapes"
        value {
          list {
            shape {
              dim {
                size: 2
              }
            }
          }
        }
      }
      attr {
        key: "dtype"
        value {
          type: DT_STRING
        }
      }
      attr {
        key: "value"
        value {
          tensor {
            dtype: DT_STRING
            tensor_shape {
              dim {
                size: 2
              }
            }
            string_val: "learning_rate_decay_staircase"
            string_val: "False"
          }
        }
      }
    }
    node {
      name: "Const_123"
      op: "Const"
      attr {
        key: "_output_shapes"
        value {
          list {
            shape {
              dim {
                size: 2
              }
            }
          }
        }
      }
      attr {
        key: "dtype"
        value {
          type: DT_STRING
        }
      }
      attr {
        key: "value"
        value {
…
r/body/code_embedding/encoder/layer_1/ffn/conv2/bias/Initializer/zeros:08\001"
        value: "\nhcs_similarity_transformer/body/code_embedding/encoder/layer_prepostprocess/layer_norm/layer_norm_scale:0\022mcs_similarity_transformer/body/code_embedding/encoder/layer_prepostprocess/layer_norm/layer_norm_scale/Assign\032|cs_similarity_transformer/body/code_embedding/encoder/layer_prepostprocess/layer_norm/layer_norm_scale/Read/ReadVariableOp:0(\0012ycs_similarity_transformer/body/code_embedding/encoder/layer_prepostprocess/layer_norm/layer_norm_scale/Initializer/ones:08\001"
        value: "\ngcs_similarity_transformer/body/code_embedding/encoder/layer_prepostprocess/layer_norm/layer_norm_bias:0\022lcs_similarity_transformer/body/code_embedding/encoder/layer_prepostprocess/layer_norm/layer_norm_bias/Assign\032{cs_similarity_transformer/body/code_embedding/encoder/layer_prepostprocess/layer_norm/layer_norm_bias/Read/ReadVariableOp:0(\0012ycs_similarity_transformer/body/code_embedding/encoder/layer_prepostprocess/layer_norm/layer_norm_bias/Initializer/zeros:08\001"
        value: "\nOcs_similarity_transformer/body/string_embedding/target_space_embedding/kernel:0\022Tcs_similarity_transformer/body/string_embedding/target_space_embedding/kernel/Assign\032ccs_similarity_transformer/body/string_embedding/target_space_embedding/kernel/Read/ReadVariableOp:0(\0012jcs_similarity_transformer/body/string_embedding/target_space_embedding/kernel/Initializer/random_uniform:08\001"
        value: "\n\201\001cs_similarity_transformer/body/string_embedding/encoder/layer_0/self_attention/layer_prepostprocess/layer_norm/layer_norm_scale:0\022\206\001cs_similarity_transformer/body/string_embedding/encoder/layer_0/self_attention/layer_prepostprocess/layer_norm/layer_norm_scale/Assign\032\225\001cs_similarity_transformer/body/string_embedding/encoder/layer_0/self_attention/layer_prepostprocess/layer_norm/layer_norm_scale/Read/ReadVariableOp:0(\0012\222\001cs_similarity_transformer/body/string_embedding/encoder/layer_0/self_attention/layer_prepostprocess/layer_norm/layer_norm_scale/Initializer/ones:08\001"
        value: "\n\200\001cs_similarity_transformer/body/string_embedding/encoder/layer_0/self_attention/layer_prepostprocess/layer_norm/layer_norm_bias:0\022\205\001cs_similarity_transformer/body/string_embedding/encoder/layer_0/self_attention/layer_prepostprocess/layer_norm/layer_norm_bias/Assign\032\224\001cs_similarity_transformer/body/string_embedding/encoder/layer_0/self_attention/layer_prepostprocess/layer_norm/layer_norm_bias/Read/ReadVariableOp:0(\0012\222\001cs_similarity_transformer/body/string_embedding/encoder/layer_0/self_attention/layer_prepostprocess/layer_norm/layer_norm_bias/Initializer/zeros:08\001"
        value: "\nmcs_similarity_transformer/body/string_embedding/encoder/layer_0/self_attention/multihead_attention/q/kernel:0\022rcs_similarity_transformer/body/string_embedding/encoder/layer_0/self_attention/multihead_attention/q/kernel/Assign\032\201\001cs_similarity_transformer/body/string_embedding/encoder/layer_0/self_attention/multihead_attention/q/kernel/Read/ReadVariableOp:0(\0012\210\001cs_similarity_transformer/body/string_embedding/encoder/layer_0/self_attention/multihead_attention/q/kernel/Initializer/random_uniform:08\001"
        value: "\nmcs_similarity_transformer/body/string_embedding/encoder/layer_0/self_attention/multihead_attention/k/kernel:0\022rcs_similarity_transformer/body/string_embedding/encoder/layer_0/self_attention/multihead_attention/k/kernel/Assign\032\201\001cs_similarity_transformer/body/string_embedding/encoder/layer_0/self_attention/multihead_attention/k/kernel/Read/ReadVariableOp:0(\0012\210\001cs_similarity_transformer/body/string_embedding/encoder/layer_0/self_attention/multihead_attention/k/kernel/Initializer/random_uniform:08\001"
        value: "\nmcs_similarity_transformer/body/string_embedding/encoder/layer_0/self_attention/multihead_attention/v/kernel:0\022rcs_similarity_transformer/body/string_embedding/encoder/layer_0/self_attention/multihead_attention/v/kernel/Assign\032\201\001cs_similarity_transformer/body/string_embedding/encoder/layer_0/self_attention/multihead_attention/v/kernel/Read/ReadVariableOp:0(\0012\210\001cs_similarity_transformer/body/string_embedding/encoder/layer_0/self_attention/multihead_attention/v/kernel/Initializer/random_uniform:08\001"
        value: "\n|cs_similarity_transformer/body/string_embedding/encoder/layer_0/self_attention/multihead_attention/output_transform/kernel:0\022\201\001cs_similarity_transformer/body/string_embedding/encoder/layer_0/self_attention/multihead_attention/output_transform/kernel/Assign\032\220\001cs_similarity_transformer/body/string_embedding/encoder/layer_0/self_attention/multihead_attention/output_transform/kernel/Read/ReadVariableOp:0(\0012\227\001cs_similarity_transformer/body/string_embedding/encoder/layer_0/self_attention/multihead_attention/output_transform/kernel/Initializer/random_uniform:08\001"
        value: "\nvcs_similarity_transformer/body/string_embedding/encoder/layer_0/ffn/layer_prepostprocess/layer_norm/layer_norm_scale:0\022{cs_similarity_transformer/body/string_embedding/encoder/layer_0/ffn/layer_prepostprocess/layer_norm/layer_norm_scale/Assign\032\212\001cs_similarity_transformer/body/string_embedding/encoder/layer_0/ffn/layer_prepostprocess/layer_norm/layer_norm_scale/Read/ReadVariableOp:0(\0012\207\001cs_similarity_transformer/body/string_embedding/encoder/layer_0/ffn/layer_prepostprocess/layer_norm/layer_norm_scale/Initializer/ones:08\001"
        value: "\nucs_similarity_transformer/body/string_embedding/encoder/layer_0/ffn/layer_prepostprocess/layer_norm/layer_norm_bias:0\022zcs_similarity_transformer/body/string_embedding/encoder/layer_0/ffn/layer_prepostprocess/layer_norm/layer_norm_bias/Assign\032\211\001cs_similarity_transformer/body/string_embedding/encoder/layer_0/ffn/layer_prepostprocess/layer_norm/layer_norm_bias/Read/ReadVariableOp:0(\0012\207\001cs_similarity_transformer/body/string_embedding/encoder/layer_0/ffn/layer_prepostprocess/layer_norm/layer_norm_bias/Initializer/zeros:08\001"
        value: "\nRcs_similarity_transformer/body/string_embedding/encoder/layer_0/ffn/conv1/kernel:0\022Wcs_similarity_transformer/body/string_embedding/encoder/layer_0/ffn/conv1/kernel/Assign\032fcs_similarity_transformer/body/string_embedding/encoder/layer_0/ffn/conv1/kernel/Read/ReadVariableOp:0(\0012mcs_similarity_transformer/body/string_embedding/encoder/layer_0/ffn/conv1/kernel/Initializer/random_uniform:08\001"
        value: "\nPcs_similarity_transformer/body/string_embedding/encoder/layer_0/ffn/conv1/bias:0\022Ucs_similarity_transformer/body/string_embedding/encoder/layer_0/ffn/conv1/bias/Assign\032dcs_similarity_transformer/body/string_embedding/encoder/layer_0/ffn/conv1/bias/Read/ReadVariableOp:0(\0012bcs_similarity_transformer/body/string_embedding/encoder/layer_0/ffn/conv1/bias/Initializer/zeros:08\001"
        value: "\nRcs_similarity_transformer/body/string_embedding/encoder/layer_0/ffn/conv2/kernel:0\022Wcs_similarity_transformer/body/string_embedding/encoder/layer_0/ffn/conv2/kernel/Assign\032fcs_similarity_transformer/body/string_embedding/encoder/layer_0/ffn/conv2/kernel/Read/ReadVariableOp:0(\0012mcs_similarity_transformer/body/string_embedding/encoder/layer_0/ffn/conv2/kernel/Initializer/random_uniform:08\001"
        value: "\nPcs_similarity_transformer/body/string_embedding/encoder/layer_0/ffn/conv2/bias:0\022Ucs_similarity_transformer/body/string_embedding/encoder/layer_0/ffn/conv2/bias/Assign\032dcs_similarity_transformer/body/string_embedding/encoder/layer_0/ffn/conv2/bias/Read/ReadVariableOp:0(\0012bcs_similarity_transformer/body/string_embedding/encoder/layer_0/ffn/conv2/bias/Initializer/zeros:08\001"
        value: "\n\201\001cs_similarity_transformer/body/string_embedding/encoder/layer_1/self_attention/layer_prepostprocess/layer_norm/layer_norm_scale:0\022\206\001cs_similarity_transformer/body/string_embedding/encoder/layer_1/self_attention/layer_prepostprocess/layer_norm/layer_norm_scale/Assign\032\225\001cs_similarity_transformer/body/string_embedding/encoder/layer_1/self_attention/layer_prepostprocess/layer_norm/layer_norm_scale/Read/ReadVariableOp:0(\0012\222\001cs_similarity_transformer/body/string_embedding/encoder/layer_1/self_attention/layer_prepostprocess/layer_norm/layer_norm_scale/Initializer/ones:08\001"
        value: "\n\200\001cs_similarity_transformer/body/string_embedding/encoder/layer_1/self_attention/layer_prepostprocess/layer_norm/layer_norm_bias:0\022\205\001cs_similarity_transformer/body/string_embedding/encoder/layer_1/self_attention/layer_prepostprocess/layer_norm/layer_norm_bias/Assign\032\224\001cs_similarity_transformer/body/string_embedding/encoder/layer_1/self_attention/layer_prepostprocess/layer_norm/layer_norm_bias/Read/ReadVariableOp:0(\0012\222\001cs_similarity_transformer/body/string_embedding/encoder/layer_1/self_attention/layer_prepostprocess/layer_norm/layer_norm_bias/Initializer/zeros:08\001"
        value: "\nmcs_similarity_transformer/body/string_embedding/encoder/layer_1/self_attention/multihead_attention/q/kernel:0\022rcs_similarity_transformer/body/string_embedding/encoder/layer_1/self_attention/multihead_attention/q/kernel/Assign\032\201\001cs_similarity_transformer/body/string_embedding/encoder/layer_1/self_attention/multihead_attention/q/kernel/Read/ReadVariableOp:0(\0012\210\001cs_similarity_transformer/body/string_embedding/encoder/layer_1/self_attention/multihead_attention/q/kernel/Initializer/random_uniform:08\001"
        value: "\nmcs_similarity_transformer/body/string_embedding/encoder/layer_1/self_attention/multihead_attention/k/kernel:0\022rcs_similarity_transformer/body/string_embedding/encoder/layer_1/self_attention/multihead_attention/k/kernel/Assign\032\201\001cs_similarity_transformer/body/string_embedding/encoder/layer_1/self_attention/multihead_attention/k/kernel/Read/ReadVariableOp:0(\0012\210\001cs_similarity_transformer/body/string_embedding/encoder/layer_1/self_attention/multihead_attention/k/kernel/Initializer/random_uniform:08\001"
        value: "\nmcs_similarity_transformer/body/string_embedding/encoder/layer_1/self_attention/multihead_attention/v/kernel:0\022rcs_similarity_transformer/body/string_embedding/encoder/layer_1/self_attention/multihead_attention/v/kernel/Assign\032\201\001cs_similarity_transformer/body/string_embedding/encoder/layer_1/self_attention/multihead_attention/v/kernel/Read/ReadVariableOp:0(\0012\210\001cs_similarity_transformer/body/string_embedding/encoder/layer_1/self_attention/multihead_attention/v/kernel/Initializer/random_uniform:08\001"
        value: "\n|cs_similarity_transformer/body/string_embedding/encoder/layer_1/self_attention/multihead_attention/output_transform/kernel:0\022\201\001cs_similarity_transformer/body/string_embedding/encoder/layer_1/self_attention/multihead_attention/output_transform/kernel/Assign\032\220\001cs_similarity_transformer/body/string_embedding/encoder/layer_1/self_attention/multihead_attention/output_transform/kernel/Read/ReadVariableOp:0(\0012\227\001cs_similarity_transformer/body/string_embedding/encoder/layer_1/self_attention/multihead_attention/output_transform/kernel/Initializer/random_uniform:08\001"
        value: "\nvcs_similarity_transformer/body/string_embedding/encoder/layer_1/ffn/layer_prepostprocess/layer_norm/layer_norm_scale:0\022{cs_similarity_transformer/body/string_embedding/encoder/layer_1/ffn/layer_prepostprocess/layer_norm/layer_norm_scale/Assign\032\212\001cs_similarity_transformer/body/string_embedding/encoder/layer_1/ffn/layer_prepostprocess/layer_norm/layer_norm_scale/Read/ReadVariableOp:0(\0012\207\001cs_similarity_transformer/body/string_embedding/encoder/layer_1/ffn/layer_prepostprocess/layer_norm/layer_norm_scale/Initializer/ones:08\001"
        value: "\nucs_similarity_transformer/body/string_embedding/encoder/layer_1/ffn/layer_prepostprocess/layer_norm/layer_norm_bias:0\022zcs_similarity_transformer/body/string_embedding/encoder/layer_1/ffn/layer_prepostprocess/layer_norm/layer_norm_bias/Assign\032\211\001cs_similarity_transformer/body/string_embedding/encoder/layer_1/ffn/layer_prepostprocess/layer_norm/layer_norm_bias/Read/ReadVariableOp:0(\0012\207\001cs_similarity_transformer/body/string_embedding/encoder/layer_1/ffn/layer_prepostprocess/layer_norm/layer_norm_bias/Initializer/zeros:08\001"
        value: "\nRcs_similarity_transformer/body/string_embedding/encoder/layer_1/ffn/conv1/kernel:0\022Wcs_similarity_transformer/body/string_embedding/encoder/layer_1/ffn/conv1/kernel/Assign\032fcs_similarity_transformer/body/string_embedding/encoder/layer_1/ffn/conv1/kernel/Read/ReadVariableOp:0(\0012mcs_similarity_transformer/body/string_embedding/encoder/layer_1/ffn/conv1/kernel/Initializer/random_uniform:08\001"
        value: "\nPcs_similarity_transformer/body/string_embedding/encoder/layer_1/ffn/conv1/bias:0\022Ucs_similarity_transformer/body/string_embedding/encoder/layer_1/ffn/conv1/bias/Assign\032dcs_similarity_transformer/body/string_embedding/encoder/layer_1/ffn/conv1/bias/Read/ReadVariableOp:0(\0012bcs_similarity_transformer/body/string_embedding/encoder/layer_1/ffn/conv1/bias/Initializer/zeros:08\001"
        value: "\nRcs_similarity_transformer/body/string_embedding/encoder/layer_1/ffn/conv2/kernel:0\022Wcs_similarity_transformer/body/string_embedding/encoder/layer_1/ffn/conv2/kernel/Assign\032fcs_similarity_transformer/body/string_embedding/encoder/layer_1/ffn/conv2/kernel/Read/ReadVariableOp:0(\0012mcs_similarity_transformer/body/string_embedding/encoder/layer_1/ffn/conv2/kernel/Initializer/random_uniform:08\001"
        value: "\nPcs_similarity_transformer/body/string_embedding/encoder/layer_1/ffn/conv2/bias:0\022Ucs_similarity_transformer/body/string_embedding/encoder/layer_1/ffn/conv2/bias/Assign\032dcs_similarity_transformer/body/string_embedding/encoder/layer_1/ffn/conv2/bias/Read/ReadVariableOp:0(\0012bcs_similarity_transformer/body/string_embedding/encoder/layer_1/ffn/conv2/bias/Initializer/zeros:08\001"
        value: "\njcs_similarity_transformer/body/string_embedding/encoder/layer_prepostprocess/layer_norm/layer_norm_scale:0\022ocs_similarity_transformer/body/string_embedding/encoder/layer_prepostprocess/layer_norm/layer_norm_scale/Assign\032~cs_similarity_transformer/body/string_embedding/encoder/layer_prepostprocess/layer_norm/layer_norm_scale/Read/ReadVariableOp:0(\0012{cs_similarity_transformer/body/string_embedding/encoder/layer_prepostprocess/layer_norm/layer_norm_scale/Initializer/ones:08\001"
        value: "\nics_similarity_transformer/body/string_embedding/encoder/layer_prepostprocess/layer_norm/layer_norm_bias:0\022ncs_similarity_transformer/body/string_embedding/encoder/layer_prepostprocess/layer_norm/layer_norm_bias/Assign\032}cs_similarity_transformer/body/string_embedding/encoder/layer_prepostprocess/layer_norm/layer_norm_bias/Read/ReadVariableOp:0(\0012{cs_similarity_transformer/body/string_embedding/encoder/layer_prepostprocess/layer_norm/layer_norm_bias/Initializer/zeros:08\001"
      }
    }
  }
  collection_def {
    key: "variables"
    value {
      bytes_list {
        value: "\n\rglobal_step:0\022\022global_step/Assign\032\022global_step/read:02\037global_step/Initializer/zeros:0"
        value: "\nEcs_similarity_transformer/symbol_modality_8164_128/shared/weights_0:0\022Jcs_similarity_transformer/symbol_modality_8164_128/shared/weights_0/Assign\032Ycs_similarity_transformer/symbol_modality_8164_128/shared/weights_0/Read/ReadVariableOp:0(\0012_cs_similarity_transformer/symbol_modality_8164_128/shared/weights_0/Initializer/random_normal:08\001"
        value: "\nEcs_similarity_transformer/symbol_modality_8164_128/shared/weights_1:0\022Jcs_similarity_transformer/symbol_modality_8164_128/shared/weights_1/Assign\032Ycs_similarity_transformer/symbol_modality_8164_128/shared/weights_1/Read/ReadVariableOp:0(\0012_cs_similarity_transformer/symbol_modality_8164_128/shared/weights_1/Initializer/random_normal:08\001"
        value: "\nEcs_similarity_transformer/symbol_modality_8164_128/shared/weights_2:0\022Jcs_similarity_transformer/symbol_modality_8164_128/shared/weights_2/Assign\032Ycs_similarity_transformer/symbol_modality_8164_128/shared/weights_2/Read/ReadVariableOp:0(\0012_cs_similarity_transformer/symbol_modality_8164_128/shared/weights_2/Initializer/random_normal:08\001"
        value: "\nEcs_similarity_transformer/symbol_modality_8164_128/shared/weights_3:0\022Jcs_similarity_transformer/symbol_modality_8164_128/shared/weights_3/Assign\032Ycs_similarity_transformer/symbol_modality_8164_128/shared/weights_3/Read/ReadVariableOp:0(\0012_cs_similarity_transformer/symbol_modality_8164_128/shared/weights_3/Initializer/random_normal:08\001"
        value: "\nEcs_similarity_transformer/symbol_modality_8164_128/shared/weights_4:0\022Jcs_similarity_transformer/symbol_modality_8164_128/shared/weights_4/Assign\032Ycs_similarity_transformer/symbol_modality_8164_128/shared/weights_4/Read/ReadVariableOp:0(\0012_cs_similarity_transformer/symbol_modality_8164_128/shared/weights_4/Initializer/random_normal:08\001"
        value: "\nEcs_similarity_transformer/symbol_modality_8164_128/shared/weights_5:0\022Jcs_similarity_transformer/symbol_modality_8164_128/shared/weights_5/Assign\032Ycs_similarity_transformer/symbol_modality_8164_128/shared/weights_5/Read/ReadVariableOp:0(\0012_cs_similarity_transformer/symbol_modality_8164_128/shared/weights_5/Initializer/random_normal:08\001"
        value: "\nEcs_similarity_transformer/symbol_modality_8164_128/shared/weights_6:0\022Jcs_similarity_transformer/symbol_modality_8164_128/shared/weights_6/Assign\032Ycs_similarity_transformer/symbol_modality_8164_128/shared/weights_6/Read/ReadVariableOp:0(\0012_cs_similarity_transformer/symbol_modality_8164_128/shared/weights_6/Initializer/random_normal:08\001"
        value: "\nEcs_similarity_transformer/symbol_modality_8164_128/shared/weights_7:0\022Jcs_similarity_transformer/symbol_modality_8164_128/shared/weights_7/Assign\032Ycs_similarity_transformer/symbol_modality_8164_128/shared/weights_7/Read/ReadVariableOp:0(\0012_cs_similarity_transformer/symbol_modality_8164_128/shared/weights_7/Initializer/random_normal:08\001"
        value: "\nEcs_similarity_transformer/symbol_modality_8164_128/shared/weights_8:0\022Jcs_similarity_transformer/symbol_modality_8164_128/shared/weights_8/Assign\032Ycs_similarity_transformer/symbol_modality_8164_128/shared/weights_8/Read/ReadVariableOp:0(\0012_cs_similarity_transformer/symbol_modality_8164_128/shared/weights_8/Initializer/random_normal:08\001"
        value: "\nEcs_similarity_transformer/symbol_modality_8164_128/shared/weights_9:0\022Jcs_similarity_transformer/symbol_modality_8164_128/shared/weights_9/Assign\032Ycs_similarity_transformer/symbol_modality_8164_128/shared/weights_9/Read/ReadVariableOp:0(\0012_cs_similarity_transformer/symbol_modality_8164_128/shared/weights_9/Initializer/random_normal:08\001"
        value: "\nFcs_similarity_transformer/symbol_modality_8164_128/shared/weights_10:0\022Kcs_similarity_transformer/symbol_modality_8164_128/shared/weights_10/Assign\032Zcs_similarity_transformer/symbol_modality_8164_128/shared/weights_10/Read/ReadVariableOp:0(\0012`cs_similarity_transformer/symbol_modality_8164_128/shared/weights_10/Initializer/random_normal:08\001"
        value: "\nFcs_similarity_transformer/symbol_modality_8164_128/shared/weights_11:0\022Kcs_similarity_transformer/symbol_modality_8164_128/shared/weights_11/Assign\032Zcs_similarity_transformer/symbol_modality_8164_128/shared/weights_11/Read/ReadVariableOp:0(\0012`cs_similarity_transformer/symbol_modality_8164_128/shared/weights_11/Initializer/random_normal:08\001"
        value: "\nFcs_similarity_transformer/symbol_modality_8164_128/shared/weights_12:0\022Kcs_similarity_transformer/symbol_modality_8164_128/shared/weights_12/Assign\032Zcs_similarity_transformer/symbol_modality_8164_128/shared/weights_12/Read/ReadVariableOp:0(\0012`cs_similarity_transformer/symbol_modality_8164_128/shared/weights_12/Initializer/random_normal:08\001"
        value: "\nFcs_similarity_transformer/symbol_modality_8164_128/shared/weights_13:0\022Kcs_similarity_transformer/symbol_modality_8164_128/shared/weights_13/Assign\032Zcs_similarity_transformer/symbol_modality_8164_128/shared/weights_13/Read/ReadVariableOp:0(\0012`cs_similarity_transformer/symbol_modality_8164_128/shared/weights_13/Initializer/random_normal:08\001"
        value: "\nFcs_similarity_transformer/symbol_modality_8164_128/shared/weights_14:0\022Kcs_similarity_transformer/symbol_modality_8164_128/shared/weights_14/Assign\032Zcs_similarity_transformer/symbol_modality_8164_128/shared/weights_14/Read/ReadVariableOp:0(\0012`cs_similarity_transformer/symbol_modality_8164_128/shared/weights_14/Initializer/random_normal:08\001"
        value: "\nFcs_similarity_transformer/symbol_modality_8164_128/shared/weights_15:0\022Kcs_similarity_transformer/symbol_modality_8164_128/shared/weights_15/Assign\032Zcs_similarity_transformer/symbol_modality_8164_128/shared/weights_15/Read/ReadVariableOp:0(\0012`cs_similarity_transformer/symbol_modality_8164_128/shared/weights_15/Initializer/random_normal:08\001"
        value: "\nMcs_similarity_transformer/body/code_embedding/target_space_embedding/kernel:0\022Rcs_similarity_transformer/body/code_embedding/target_space_embedding/kernel/Assign\032acs_similarity_transformer/body/code_embedding/target_space_embedding/kernel/Read/ReadVariableOp:0(\0012hcs_similarity_transformer/body/code_embedding/target_space_embedding/kernel/Initializer/random_uniform:08\001"
        value: "\n\177cs_similarity_transformer/body/code_embedding/encoder/layer_0/self_attention/layer_prepostprocess/layer_norm/layer_norm_scale:0\022\204\001cs_similarity_transformer/body/code_embedding/encoder/layer_0/self_attention/layer_prepostprocess/layer_norm/layer_norm_scale/Assign\032\223\001cs_similarity_transformer/body/code_embedding/encoder/layer_0/self_attention/layer_prepostprocess/layer_norm/layer_norm_scale/Read/ReadVariableOp:0(\0012\220\001cs_similarity_transformer/body/code_embedding/encoder/layer_0/self_attention/layer_prepostprocess/layer_norm/layer_norm_scale/Initializer/ones:08\001"
        value: "\n~cs_similarity_transformer/body/code_embedding/encoder/layer_0/self_attention/layer_prepostprocess/layer_norm/layer_norm_bias:0\022\203\001cs_similarity_transformer/body/code_embedding/encoder/layer_0/self_attention/layer_prepostprocess/layer_norm/layer_norm_bias/Assign\032\222\001cs_similarity_transformer/body/code_embedding/encoder/layer_0/self_attention/layer_prepostprocess/layer_norm/layer_norm_bias/Read/ReadVariableOp:0(\0012\220\001cs_similarity_transformer/body/code_embedding/encoder/layer_0/self_attention/layer_prepostprocess/layer_norm/layer_norm_bias/Initializer/zeros:08\001"
        value: "\nkcs_similarity_transformer/body/code_embedding/encoder/layer_0/self_attention/multihead_attention/q/kernel:0\022pcs_similarity_transformer/body/code_embedding/encoder/layer_0/self_attention/multihead_attention/q/kernel/Assign\032\177cs_similarity_transformer/body/code_embedding/encoder/layer_0/self_attention/multihead_attention/q/kernel/Read/ReadVariableOp:0(\0012\206\001cs_similarity_transformer/body/code_embedding/encoder/layer_0/self_attention/multihead_attention/q/kernel/Initializer/random_uniform:08\001"
        value: "\nkcs_similarity_transformer/body/code_embedding/encoder/layer_0/self_attention/multihead_attention/k/kernel:0\022pcs_similarity_transformer/body/code_embedding/encoder/layer_0/self_attention/multihead_attention/k/kernel/Assign\032\177cs_similarity_transformer/body/code_embedding/encoder/layer_0/self_attention/multihead_attention/k/kernel/Read/ReadVariableOp:0(\0012\206\001cs_similarity_transformer/body/code_embedding/encoder/layer_0/self_attention/multihead_attention/k/kernel/Initializer/random_uniform:08\001"
        value: "\nkcs_similarity_transformer/body/code_embedding/encoder/layer_0/self_attention/multihead_attention/v/kernel:0\022pcs_similarity_transformer/body/code_embedding/encoder/layer_0/self_attention/multihead_attention/v/kernel/Assign\032\177cs_similarity_transformer/body/code_embedding/encoder/layer_0/self_attention/multihead_attention/v/kernel/Read/ReadVariableOp:0(\0012\206\001cs_similarity_transformer/body/code_embedding/encoder/layer_0/self_attention/multihead_attention/v/kernel/Initializer/random_uniform:08\001"
        value: "\nzcs_similarity_transformer/body/code_embedding/encoder/layer_0/self_attention/multihead_attention/output_transform/kernel:0\022\177cs_similarity_transformer/body/code_embedding/encoder/layer_0/self_attention/multihead_attention/output_transform/kernel/Assign\032\216\001cs_similarity_transformer/body/code_embedding/encoder/layer_0/self_attention/multihead_attention/output_transform/kernel/Read/ReadVariableOp:0(\0012\225\001cs_similarity_transformer/body/code_embedding/encoder/layer_0/self_attention/multihead_attention/output_transform/kernel/Initializer/random_uniform:08\001"
        value: "\ntcs_similarity_transformer/body/code_embedding/encoder/layer_0/ffn/layer_prepostprocess/layer_norm/layer_norm_scale:0\022ycs_similarity_transformer/body/code_embedding/encoder/layer_0/ffn/layer_prepostprocess/layer_norm/layer_norm_scale/Assign\032\210\001cs_similarity_transformer/body/code_embedding/encoder/layer_0/ffn/layer_prepostprocess/layer_norm/layer_norm_scale/Read/ReadVariableOp:0(\0012\205\001cs_similarity_transformer/body/code_embedding/encoder/layer_0/ffn/layer_prepostprocess/layer_norm/layer_norm_scale/Initializer/ones:08\001"
        value: "\nscs_similarity_transformer/body/code_embedding/encoder/layer_0/ffn/layer_prepostprocess/layer_norm/layer_norm_bias:0\022xcs_similarity_transformer/body/code_embedding/encoder/layer_0/ffn/layer_prepostprocess/layer_norm/layer_norm_bias/Assign\032\207\001cs_similarity_transformer/body/code_embedding/encoder/layer_0/ffn/layer_prepostprocess/layer_norm/layer_norm_bias/Read/ReadVariableOp:0(\0012\205\001cs_similarity_transformer/body/code_embedding/encoder/layer_0/ffn/layer_prepostprocess/layer_norm/layer_norm_bias/Initializer/zeros:08\001"
        value: "\nPcs_similarity_transformer/body/code_embedding/encoder/layer_0/ffn/conv1/kernel:0\022Ucs_similarity_transformer/body/code_embedding/encoder/layer_0/ffn/conv1/kernel/Assign\032dcs_similarity_transformer/body/code_embedding/encoder/layer_0/ffn/conv1/kernel/Read/ReadVariableOp:0(\0012kcs_similarity_transformer/body/code_embedding/encoder/layer_0/ffn/conv1/kernel/Initializer/random_uniform:08\001"
        value: "\nNcs_similarity_transformer/body/code_embedding/encoder/layer_0/ffn/conv1/bias:0\022Scs_similarity_transformer/body/code_embedding/encoder/layer_0/ffn/conv1/bias/Assign\032bcs_similarity_transformer/body/code_embedding/encoder/layer_0/ffn/conv1/bias/Read/ReadVariableOp:0(\0012`cs_similarity_transformer/body/code_embedding/encoder/layer_0/ffn/conv1/bias/Initializer/zeros:08\001"
        value: "\nPcs_similarity_transformer/body/code_embedding/encoder/layer_0/ffn/conv2/kernel:0\022Ucs_similarity_transformer/body/code_embedding/encoder/layer_0/ffn/conv2/kernel/Assign\032dcs_similarity_transformer/body/code_embedding/encoder/layer_0/ffn/conv2/kernel/Read/ReadVariableOp:0(\0012kcs_similarity_transformer/body/code_embedding/encoder/layer_0/ffn/conv2/kernel/Initializer/random_uniform:08\001"
        value: "\nNcs_similarity_transformer/body/code_embedding/encoder/layer_0/ffn/conv2/bias:0\022Scs_similarity_transformer/body/code_embedding/encoder/layer_0/ffn/conv2/bias/Assign\032bcs_similarity_transformer/body/code_embedding/encoder/layer_0/ffn/conv2/bias/Read/ReadVariableOp:0(\0012`cs_similarity_transformer/body/code_embedding/encoder/layer_0/ffn/conv2/bias/Initializer/zeros:08\001"
        value: "\n\177cs_similarity_transformer/body/code_embedding/encoder/layer_1/self_attention/layer_prepostprocess/layer_norm/layer_norm_scale:0\022\204\001cs_similarity_transformer/body/code_embedding/encoder/layer_1/self_attention/layer_prepostprocess/layer_norm/layer_norm_scale/Assign\032\223\001cs_similarity_transformer/body/code_embedding/encoder/layer_1/self_attention/layer_prepostprocess/layer_norm/layer_norm_scale/Read/ReadVariableOp:0(\0012\220\001cs_similarity_transformer/body/code_embedding/encoder/layer_1/self_attention/layer_prepostprocess/layer_norm/layer_norm_scale/Initializer/ones:08\001"
        value: "\n~cs_similarity_transformer/body/code_embedding/encoder/layer_1/self_attention/layer_prepostprocess/layer_norm/layer_norm_bias:0\022\203\001cs_similarity_transformer/body/code_embedding/encoder/layer_1/self_attention/layer_prepostprocess/layer_norm/layer_norm_bias/Assign\032\222\001cs_similarity_transformer/body/code_embedding/encoder/layer_1/self_attention/layer_prepostprocess/layer_norm/layer_norm_bias/Read/ReadVariableOp:0(\0012\220\001cs_similarity_transformer/body/code_embedding/encoder/layer_1/self_attention/layer_prepostprocess/layer_norm/layer_norm_bias/Initializer/zeros:08\001"
        value: "\nkcs_similarity_transformer/body/code_embedding/encoder/layer_1/self_attention/multihead_attention/q/kernel:0\022pcs_similarity_transformer/body/code_embedding/encoder/layer_1/self_attention/multihead_attention/q/kernel/Assign\032\177cs_similarity_transformer/body/code_embedding/encoder/layer_1/self_attention/multihead_attention/q/kernel/Read/ReadVariableOp:0(\0012\206\001cs_similarity_transformer/body/code_embedding/encoder/layer_1/self_attention/multihead_attention/q/kernel/Initializer/random_uniform:08\001"
        value: "\nkcs_similarity_transformer/body/code_embedding/encoder/layer_1/self_attention/multihead_attention/k/kernel:0\022pcs_similarity_transformer/body/code_embedding/encoder/layer_1/self_attention/multihead_attention/k/kernel/Assign\032\177cs_similarity_transformer/body/code_embedding/encoder/layer_1/self_attention/multihead_attention/k/kernel/Read/ReadVariableOp:0(\0012\206\001cs_similarity_transformer/body/code_embedding/encoder/layer_1/self_attention/multihead_attention/k/kernel/Initializer/random_uniform:08\001"
        value: "\nkcs_similarity_transformer/body/code_embedding/encoder/layer_1/self_attention/multihead_attention/v/kernel:0\022pcs_similarity_transformer/body/code_embedding/encoder/layer_1/self_attention/multihead_attention/v/kernel/Assign\032\177cs_similarity_transformer/body/code_embedding/encoder/layer_1/self_attention/multihead_attention/v/kernel/Read/ReadVariableOp:0(\0012\206\001cs_similarity_transformer/body/code_embedding/encoder/layer_1/self_attention/multihead_attention/v/kernel/Initializer/random_uniform:08\001"
        value: "\nzcs_similarity_transformer/body/code_embedding/encoder/layer_1/self_attention/multihead_attention/output_transform/kernel:0\022\177cs_similarity_transformer/body/code_embedding/encoder/layer_1/self_attention/multihead_attention/output_transform/kernel/Assign\032\216\001cs_similarity_transformer/body/code_embedding/encoder/layer_1/self_attention/multihead_attention/output_transform/kernel/Read/ReadVariableOp:0(\0012\225\001cs_similarity_transformer/body/code_embedding/encoder/layer_1/self_attention/multihead_attention/output_transform/kernel/Initializer/random_uniform:08\001"
        value: "\ntcs_similarity_transformer/body/code_embedding/encoder/layer_1/ffn/layer_prepostprocess/layer_norm/layer_norm_scale:0\022ycs_similarity_transformer/body/code_embedding/encoder/layer_1/ffn/layer_prepostprocess/layer_norm/layer_norm_scale/Assign\032\210\001cs_similarity_transformer/body/code_embedding/encoder/layer_1/ffn/layer_prepostprocess/layer_norm/layer_norm_scale/Read/ReadVariableOp:0(\0012\205\001cs_similarity_transformer/body/code_embedding/encoder/layer_1/ffn/layer_prepostprocess/layer_norm/layer_norm_scale/Initializer/ones:08\001"
        value: "\nscs_similarity_transformer/body/code_embedding/encoder/layer_1/ffn/layer_prepostprocess/layer_norm/layer_norm_bias:0\022xcs_similarity_transformer/body/code_embedding/encoder/layer_1/ffn/layer_prepostprocess/layer_norm/layer_norm_bias/Assign\032\207\001cs_similarity_transformer/body/code_embedding/encoder/layer_1/ffn/layer_prepostprocess/layer_norm/layer_norm_bias/Read/ReadVariableOp:0(\0012\205\001cs_similarity_transformer/body/code_embedding/encoder/layer_1/ffn/layer_prepostprocess/layer_norm/layer_norm_bias/Initializer/zeros:08\001"
        value: "\nPcs_similarity_transformer/body/code_embedding/encoder/layer_1/ffn/conv1/kernel:0\022Ucs_similarity_transformer/body/code_embedding/encoder/layer_1/ffn/conv1/kernel/Assign\032dcs_similarity_transformer/body/code_embedding/encoder/layer_1/ffn/conv1/kernel/Read/ReadVariableOp:0(\0012kcs_similarity_transformer/body/code_embedding/encoder/layer_1/ffn/conv1/kernel/Initializer/random_uniform:08\001"
        value: "\nNcs_similarity_transformer/body/code_embedding/encoder/layer_1/ffn/conv1/bias:0\022Scs_similarity_transformer/body/code_embedding/encoder/layer_1/ffn/conv1/bias/Assign\032bcs_similarity_transformer/body/code_embedding/encoder/layer_1/ffn/conv1/bias/Read/ReadVariableOp:0(\0012`cs_similarity_transformer/body/code_embedding/encoder/layer_1/ffn/conv1/bias/Initializer/zeros:08\001"
        value: "\nPcs_similarity_transformer/body/code_embedding/encoder/layer_1/ffn/conv2/kernel:0\022Ucs_similarity_transformer/body/code_embedding/encoder/layer_1/ffn/conv2/kernel/Assign\032dcs_similarity_transformer/body/code_embedding/encoder/layer_1/ffn/conv2/kernel/Read/ReadVariableOp:0(\0012kcs_similarity_transformer/body/code_embedding/encoder/layer_1/ffn/conv2/kernel/Initializer/random_uniform:08\001"
        value: "\nNcs_similarity_transformer/body/code_embedding/encoder/layer_1/ffn/conv2/bias:0\022Scs_similarity_transformer/body/code_embedding/encoder/layer_1/ffn/conv2/bias/Assign\032bcs_similarity_transformer/body/code_embedding/encoder/layer_1/ffn/conv2/bias/Read/ReadVariableOp:0(\0012`cs_similarity_transformer/body/code_embedding/encoder/layer_1/ffn/conv2/bias/Initializer/zeros:08\001"
        value: "\nhcs_similarity_transformer/body/code_embedding/encoder/layer_prepostprocess/layer_norm/layer_norm_scale:0\022mcs_similarity_transformer/body/code_embedding/encoder/layer_prepostprocess/layer_norm/layer_norm_scale/Assign\032|cs_similarity_transformer/body/code_embedding/encoder/layer_prepostprocess/layer_norm/layer_norm_scale/Read/ReadVariableOp:0(\0012ycs_similarity_transformer/body/code_embedding/encoder/layer_prepostprocess/layer_norm/layer_norm_scale/Initializer/ones:08\001"
        value: "\ngcs_similarity_transformer/body/code_embedding/encoder/layer_prepostprocess/layer_norm/layer_norm_bias:0\022lcs_similarity_transformer/body/code_embedding/encoder/layer_prepostprocess/layer_norm/layer_norm_bias/Assign\032{cs_similarity_transformer/body/code_embedding/encoder/layer_prepostprocess/layer_norm/layer_norm_bias/Read/ReadVariableOp:0(\0012ycs_similarity_transformer/body/code_embedding/encoder/layer_prepostprocess/layer_norm/layer_norm_bias/Initializer/zeros:08\001"
        value: "\nOcs_similarity_transformer/body/string_embedding/target_space_embedding/kernel:0\022Tcs_similarity_transformer/body/string_embedding/target_space_embedding/kernel/Assign\032ccs_similarity_transformer/body/string_embedding/target_space_embedding/kernel/Read/ReadVariableOp:0(\0012jcs_similarity_transformer/body/string_embedding/target_space_embedding/kernel/Initializer/random_uniform:08\001"
        value: "\n\201\001cs_similarity_transformer/body/string_embedding/encoder/layer_0/self_attention/layer_prepostprocess/layer_norm/layer_norm_scale:0\022\206\001cs_similarity_transformer/body/string_embedding/encoder/layer_0/self_attention/layer_prepostprocess/layer_norm/layer_norm_scale/Assign\032\225\001cs_similarity_transformer/body/string_embedding/encoder/layer_0/self_attention/layer_prepostprocess/layer_norm/layer_norm_scale/Read/ReadVariableOp:0(\0012\222\001cs_similarity_transformer/body/string_embedding/encoder/layer_0/self_attention/layer_prepostprocess/layer_norm/layer_norm_scale/Initializer/ones:08\001"
        value: "\n\200\001cs_similarity_transformer/body/string_embedding/encoder/layer_0/self_attention/layer_prepostprocess/layer_norm/layer_norm_bias:0\022\205\001cs_similarity_transformer/body/string_embedding/encoder/layer_0/self_attention/layer_prepostprocess/layer_norm/layer_norm_bias/Assign\032\224\001cs_similarity_transformer/body/string_embedding/encoder/layer_0/self_attention/layer_prepostprocess/layer_norm/layer_norm_bias/Read/ReadVariableOp:0(\0012\222\001cs_similarity_transformer/body/string_embedding/encoder/layer_0/self_attention/layer_prepostprocess/layer_norm/layer_norm_bias/Initializer/zeros:08\001"
        value: "\nmcs_similarity_transformer/body/string_embedding/encoder/layer_0/self_attention/multihead_attention/q/kernel:0\022rcs_similarity_transformer/body/string_embedding/encoder/layer_0/self_attention/multihead_attention/q/kernel/Assign\032\201\001cs_similarity_transformer/body/string_embedding/encoder/layer_0/self_attention/multihead_attention/q/kernel/Read/ReadVariableOp:0(\0012\210\001cs_similarity_transformer/body/string_embedding/encoder/layer_0/self_attention/multihead_attention/q/kernel/Initializer/random_uniform:08\001"
        value: "\nmcs_similarity_transformer/body/string_embedding/encoder/layer_0/self_attention/multihead_attention/k/kernel:0\022rcs_similarity_transformer/body/string_embedding/encoder/layer_0/self_attention/multihead_attention/k/kernel/Assign\032\201\001cs_similarity_transformer/body/string_embedding/encoder/layer_0/self_attention/multihead_attention/k/kernel/Read/ReadVariableOp:0(\0012\210\001cs_similarity_transformer/body/string_embedding/encoder/layer_0/self_attention/multihead_attention/k/kernel/Initializer/random_uniform:08\001"
        value: "\nmcs_similarity_transformer/body/string_embedding/encoder/layer_0/self_attention/multihead_attention/v/kernel:0\022rcs_similarity_transformer/body/string_embedding/encoder/layer_0/self_attention/multihead_attention/v/kernel/Assign\032\201\001cs_similarity_transformer/body/string_embedding/encoder/layer_0/self_attention/multihead_attention/v/kernel/Read/ReadVariableOp:0(\0012\210\001cs_similarity_transformer/body/string_embedding/encoder/layer_0/self_attention/multihead_attention/v/kernel/Initializer/random_uniform:08\001"
        value: "\n|cs_similarity_transformer/body/string_embedding/encoder/layer_0/self_attention/multihead_attention/output_transform/kernel:0\022\201\001cs_similarity_transformer/body/string_embedding/encoder/layer_0/self_attention/multihead_attention/output_transform/kernel/Assign\032\220\001cs_similarity_transformer/body/string_embedding/encoder/layer_0/self_attention/multihead_attention/output_transform/kernel/Read/ReadVariableOp:0(\0012\227\001cs_similarity_transformer/body/string_embedding/encoder/layer_0/self_attention/multihead_attention/output_transform/kernel/Initializer/random_uniform:08\001"
        value: "\nvcs_similarity_transformer/body/string_embedding/encoder/layer_0/ffn/layer_prepostprocess/layer_norm/layer_norm_scale:0\022{cs_similarity_transformer/body/string_embedding/encoder/layer_0/ffn/layer_prepostprocess/layer_norm/layer_norm_scale/Assign\032\212\001cs_similarity_transformer/body/string_embedding/encoder/layer_0/ffn/layer_prepostprocess/layer_norm/layer_norm_scale/Read/ReadVariableOp:0(\0012\207\001cs_similarity_transformer/body/string_embedding/encoder/layer_0/ffn/layer_prepostprocess/layer_norm/layer_norm_scale/Initializer/ones:08\001"
        value: "\nucs_similarity_transformer/body/string_embedding/encoder/layer_0/ffn/layer_prepostprocess/layer_norm/layer_norm_bias:0\022zcs_similarity_transformer/body/string_embedding/encoder/layer_0/ffn/layer_prepostprocess/layer_norm/layer_norm_bias/Assign\032\211\001cs_similarity_transformer/body/string_embedding/encoder/layer_0/ffn/layer_prepostprocess/layer_norm/layer_norm_bias/Read/ReadVariableOp:0(\0012\207\001cs_similarity_transformer/body/string_embedding/encoder/layer_0/ffn/layer_prepostprocess/layer_norm/layer_norm_bias/Initializer/zeros:08\001"
        value: "\nRcs_similarity_transformer/body/string_embedding/encoder/layer_0/ffn/conv1/kernel:0\022Wcs_similarity_transformer/body/string_embedding/encoder/layer_0/ffn/conv1/kernel/Assign\032fcs_similarity_transformer/body/string_embedding/encoder/layer_0/ffn/conv1/kernel/Read/ReadVariableOp:0(\0012mcs_similarity_transformer/body/string_embedding/encoder/layer_0/ffn/conv1/kernel/Initializer/random_uniform:08\001"
        value: "\nPcs_similarity_transformer/body/string_embedding/encoder/layer_0/ffn/conv1/bias:0\022Ucs_similarity_transformer/body/string_embedding/encoder/layer_0/ffn/conv1/bias/Assign\032dcs_similarity_transformer/body/string_embedding/encoder/layer_0/ffn/conv1/bias/Read/ReadVariableOp:0(\0012bcs_similarity_transformer/body/string_embedding/encoder/layer_0/ffn/conv1/bias/Initializer/zeros:08\001"
        value: "\nRcs_similarity_transformer/body/string_embedding/encoder/layer_0/ffn/conv2/kernel:0\022Wcs_similarity_transformer/body/string_embedding/encoder/layer_0/ffn/conv2/kernel/Assign\032fcs_similarity_transformer/body/string_embedding/encoder/layer_0/ffn/conv2/kernel/Read/ReadVariableOp:0(\0012mcs_similarity_transformer/body/string_embedding/encoder/layer_0/ffn/conv2/kernel/Initializer/random_uniform:08\001"
        value: "\nPcs_similarity_transformer/body/string_embedding/encoder/layer_0/ffn/conv2/bias:0\022Ucs_similarity_transformer/body/string_embedding/encoder/layer_0/ffn/conv2/bias/Assign\032dcs_similarity_transformer/body/string_embedding/encoder/layer_0/ffn/conv2/bias/Read/ReadVariableOp:0(\0012bcs_similarity_transformer/body/string_embedding/encoder/layer_0/ffn/conv2/bias/Initializer/zeros:08\001"
        value: "\n\201\001cs_similarity_transformer/body/string_embedding/encoder/layer_1/self_attention/layer_prepostprocess/layer_norm/layer_norm_scale:0\022\206\001cs_similarity_transformer/body/string_embedding/encoder/layer_1/self_attention/layer_prepostprocess/layer_norm/layer_norm_scale/Assign\032\225\001cs_similarity_transformer/body/string_embedding/encoder/layer_1/self_attention/layer_prepostprocess/layer_norm/layer_norm_scale/Read/ReadVariableOp:0(\0012\222\001cs_similarity_transformer/body/string_embedding/encoder/layer_1/self_attention/layer_prepostprocess/layer_norm/layer_norm_scale/Initializer/ones:08\001"
        value: "\n\200\001cs_similarity_transformer/body/string_embedding/encoder/layer_1/self_attention/layer_prepostprocess/layer_norm/layer_norm_bias:0\022\205\001cs_similarity_transformer/body/string_embedding/encoder/layer_1/self_attention/layer_prepostprocess/layer_norm/layer_norm_bias/Assign\032\224\001cs_similarity_transformer/body/string_embedding/encoder/layer_1/self_attention/layer_prepostprocess/layer_norm/layer_norm_bias/Read/ReadVariableOp:0(\0012\222\001cs_similarity_transformer/body/string_embedding/encoder/layer_1/self_attention/layer_prepostprocess/layer_norm/layer_norm_bias/Initializer/zeros:08\001"
        value: "\nmcs_similarity_transformer/body/string_embedding/encoder/layer_1/self_attention/multihead_attention/q/kernel:0\022rcs_similarity_transformer/body/string_embedding/encoder/layer_1/self_attention/multihead_attention/q/kernel/Assign\032\201\001cs_similarity_transformer/body/string_embedding/encoder/layer_1/self_attention/multihead_attention/q/kernel/Read/ReadVariableOp:0(\0012\210\001cs_similarity_transformer/body/string_embedding/encoder/layer_1/self_attention/multihead_attention/q/kernel/Initializer/random_uniform:08\001"
        value: "\nmcs_similarity_transformer/body/string_embedding/encoder/layer_1/self_attention/multihead_attention/k/kernel:0\022rcs_similarity_transformer/body/string_embedding/encoder/layer_1/self_attention/multihead_attention/k/kernel/Assign\032\201\001cs_similarity_transformer/body/string_embedding/encoder/layer_1/self_attention/multihead_attention/k/kernel/Read/ReadVariableOp:0(\0012\210\001cs_similarity_transformer/body/string_embedding/encoder/layer_1/self_attention/multihead_attention/k/kernel/Initializer/random_uniform:08\001"
        value: "\nmcs_similarity_transformer/body/string_embedding/encoder/layer_1/self_attention/multihead_attention/v/kernel:0\022rcs_similarity_transformer/body/string_embedding/encoder/layer_1/self_attention/multihead_attention/v/kernel/Assign\032\201\001cs_similarity_transformer/body/string_embedding/encoder/layer_1/self_attention/multihead_attention/v/kernel/Read/ReadVariableOp:0(\0012\210\001cs_similarity_transformer/body/string_embedding/encoder/layer_1/self_attention/multihead_attention/v/kernel/Initializer/random_uniform:08\001"
        value: "\n|cs_similarity_transformer/body/string_embedding/encoder/layer_1/self_attention/multihead_attention/output_transform/kernel:0\022\201\001cs_similarity_transformer/body/string_embedding/encoder/layer_1/self_attention/multihead_attention/output_transform/kernel/Assign\032\220\001cs_similarity_transformer/body/string_embedding/encoder/layer_1/self_attention/multihead_attention/output_transform/kernel/Read/ReadVariableOp:0(\0012\227\001cs_similarity_transformer/body/string_embedding/encoder/layer_1/self_attention/multihead_attention/output_transform/kernel/Initializer/random_uniform:08\001"
        value: "\nvcs_similarity_transformer/body/string_embedding/encoder/layer_1/ffn/layer_prepostprocess/layer_norm/layer_norm_scale:0\022{cs_similarity_transformer/body/string_embedding/encoder/layer_1/ffn/layer_prepostprocess/layer_norm/layer_norm_scale/Assign\032\212\001cs_similarity_transformer/body/string_embedding/encoder/layer_1/ffn/layer_prepostprocess/layer_norm/layer_norm_scale/Read/ReadVariableOp:0(\0012\207\001cs_similarity_transformer/body/string_embedding/encoder/layer_1/ffn/layer_prepostprocess/layer_norm/layer_norm_scale/Initializer/ones:08\001"
        value: "\nucs_similarity_transformer/body/string_embedding/encoder/layer_1/ffn/layer_prepostprocess/layer_norm/layer_norm_bias:0\022zcs_similarity_transformer/body/string_embedding/encoder/layer_1/ffn/layer_prepostprocess/layer_norm/layer_norm_bias/Assign\032\211\001cs_similarity_transformer/body/string_embedding/encoder/layer_1/ffn/layer_prepostprocess/layer_norm/layer_norm_bias/Read/ReadVariableOp:0(\0012\207\001cs_similarity_transformer/body/string_embedding/encoder/layer_1/ffn/layer_prepostprocess/layer_norm/layer_norm_bias/Initializer/zeros:08\001"
        value: "\nRcs_similarity_transformer/body/string_embedding/encoder/layer_1/ffn/conv1/kernel:0\022Wcs_similarity_transformer/body/string_embedding/encoder/layer_1/ffn/conv1/kernel/Assign\032fcs_similarity_transformer/body/string_embedding/encoder/layer_1/ffn/conv1/kernel/Read/ReadVariableOp:0(\0012mcs_similarity_transformer/body/string_embedding/encoder/layer_1/ffn/conv1/kernel/Initializer/random_uniform:08\001"
        value: "\nPcs_similarity_transformer/body/string_embedding/encoder/layer_1/ffn/conv1/bias:0\022Ucs_similarity_transformer/body/string_embedding/encoder/layer_1/ffn/conv1/bias/Assign\032dcs_similarity_transformer/body/string_embedding/encoder/layer_1/ffn/conv1/bias/Read/ReadVariableOp:0(\0012bcs_similarity_transformer/body/string_embedding/encoder/layer_1/ffn/conv1/bias/Initializer/zeros:08\001"
        value: "\nRcs_similarity_transformer/body/string_embedding/encoder/layer_1/ffn/conv2/kernel:0\022Wcs_similarity_transformer/body/string_embedding/encoder/layer_1/ffn/conv2/kernel/Assign\032fcs_similarity_transformer/body/string_embedding/encoder/layer_1/ffn/conv2/kernel/Read/ReadVariableOp:0(\0012mcs_similarity_transformer/body/string_embedding/encoder/layer_1/ffn/conv2/kernel/Initializer/random_uniform:08\001"
        value: "\nPcs_similarity_transformer/body/string_embedding/encoder/layer_1/ffn/conv2/bias:0\022Ucs_similarity_transformer/body/string_embedding/encoder/layer_1/ffn/conv2/bias/Assign\032dcs_similarity_transformer/body/string_embedding/encoder/layer_1/ffn/conv2/bias/Read/ReadVariableOp:0(\0012bcs_similarity_transformer/body/string_embedding/encoder/layer_1/ffn/conv2/bias/Initializer/zeros:08\001"
        value: "\njcs_similarity_transformer/body/string_embedding/encoder/layer_prepostprocess/layer_norm/layer_norm_scale:0\022ocs_similarity_transformer/body/string_embedding/encoder/layer_prepostprocess/layer_norm/layer_norm_scale/Assign\032~cs_similarity_transformer/body/string_embedding/encoder/layer_prepostprocess/layer_norm/layer_norm_scale/Read/ReadVariableOp:0(\0012{cs_similarity_transformer/body/string_embedding/encoder/layer_prepostprocess/layer_norm/layer_norm_scale/Initializer/ones:08\001"
        value: "\nics_similarity_transformer/body/string_embedding/encoder/layer_prepostprocess/layer_norm/layer_norm_bias:0\022ncs_similarity_transformer/body/string_embedding/encoder/layer_prepostprocess/layer_norm/layer_norm_bias/Assign\032}cs_similarity_transformer/body/string_embedding/encoder/layer_prepostprocess/layer_norm/layer_norm_bias/Read/ReadVariableOp:0(\0012{cs_similarity_transformer/body/string_embedding/encoder/layer_prepostprocess/layer_norm/layer_norm_bias/Initializer/zeros:08\001"
      }
    }
  }
  signature_def {
    key: "serving_default"
    value {
      inputs {
        key: "input"
        value {
          name: "serialized_example:0"
          dtype: DT_STRING
          tensor_shape {
            dim {
              size: -1
            }
          }
        }
      }
      outputs {
        key: "batch_prediction_key"
        value {
          name: "DatasetToSingleElement:0"
          dtype: DT_INT32
          tensor_shape {
            dim {
              size: -1
            }
            dim {
              size: 1
            }
          }
        }
      }
      outputs {
        key: "outputs"
        value {
          name: "cs_similarity_transformer/concat:0"
          dtype: DT_FLOAT
          tensor_shape {
            dim {
              size: -1
            }
            dim {
              size: 128
            }
          }
        }
      }
      method_name: "tensorflow/serving/predict"
    }
  }
}
